gtsrb/gtsrb_9.pth (torch, 502904 bytes, 10 tensors)

weight f4 [16, 3, 5, 5]
0	0xbdbc810e	-0.09204303
1	0xbcee1366	-0.029061984
2	0x3dbf3e22	0.09338023
3	0x3d35ced3	0.044386696
4	0x3bd30c45	0.0064406716
5	0x3db80cf7	0.08986848
6	0xbd91c5ed	-0.071178295
7	0x3cf243b8	0.029573306
8	0xbdb56200	-0.08856583
9	0x3d082e5c	0.033247337
10	0x3dad109f	0.08450436
11	0x3cebf59b	0.028803637
12	0x3d4f757a	0.050649144
13	0x3c957f19	0.018249081
14	0x3db4c3dd	0.088264205
15	0xbd2043f1	-0.039127294
16	0xbd3e4b28	-0.046458393
17	0xbda95538	-0.08268207
18	0xbdba6807	-0.09101873
19	0xbdd48b1d	-0.10378096
20	0xbd6c1234	-0.057634547
21	0xbdc4d0ce	-0.09610139
22	0xbaaacfaa	-0.0013031859
23	0xbcad20ef	-0.021133868
24	0x3dbb6197	0.09149473
25	0x3ddf327f	0.10898303
26	0xbb7c287b	-0.0038476277
27	0x3dd2085f	0.10255503
28	0xbd200646	-0.039068483
29	0xbdcdeaa5	-0.100545205
30	0x3b9c46cc	0.004769182
31	0xbdd8f1f6	-0.105930254
32	0x3ce638a0	0.028103173
33	0xbd6de360	-0.05807817
34	0x3d370de6	0.04469099
35	0x3d939526	0.07206182
36	0xbc2c981c	-0.010534313
37	0x3d2c1971	0.04201645
38	0xbb8a0f2b	-0.004213234
39	0x3d71563e	0.058920138
40	0x3da3745d	0.07981179
41	0xbdc1372c	-0.09434351
42	0xbb595c34	-0.003316653
43	0xbd005b74	-0.031337216
44	0xbd11e1b5	-0.03561564
45	0x3db4706b	0.088105045
46	0xbde8adfb	-0.11361309
47	0xbc88d04e	-0.01670089
48	0xbdd0b8c4	-0.10191491
49	0x3d1c63cc	0.03818111
50	0x3ccf6348	0.025315896
51	0xbd9b2ea3	-0.075772546
52	0x3dcc1d84	0.09966567
53	0xbd1f0443	-0.038822424
54	0x3bd6e55e	0.0065581044
55	0x3d234f19	0.039870355
56	0xbd7fef8e	-0.062484317
57	0xbc22d9bc	-0.009939607
58	0x3d82e5e9	0.06391508
59	0xbcbcb1fc	-0.023034088
60	0x3d947165	0.07248191
61	0x3d82c752	0.063856736
62	0xbc329c10	-0.010901466
63	0xbcff4bcc	-0.031164072
64	0x3cf238bb	0.029568067
65	0x3c27cff3	0.01024245
66	0xbd499a46	-0.049219392
67	0x3d78b90c	0.06072335
68	0xbd7e0c51	-0.062023465
69	0x3d2ce8a7	0.042214062
70	0x3ce44aa1	0.027867617
71	0xbdadf990	-0.08494866
72	0xbdebb6a3	-0.115094446
73	0x3d149149	0.036271367
74	0x3d67ddad	0.05660789
75	0x3d248b1b	0.040171724
76	0xbd6d8065	-0.057983775
77	0x3d99df80	0.07513332
78	0xbdc6a81a	-0.097000316
79	0x3ddb7e4c	0.107174486
80	0x3c159e1f	0.009131937
81	0x3dd89cf1	0.10576809
82	0xbd8ead50	-0.069666505
83	0xbdbffa14	-0.093738705
84	0x3d309478	0.04311034
85	0x3d80c244	0.06287053
86	0xbcdd2b38	-0.026998147
87	0x3dd49ec9	0.10381848
88	0xbc90a5c9	-0.017657178
89	0x3d9da4c7	0.076974444
90	0x3d6abb3a	0.05730746
91	0x3d6bc7a4	0.05756344
92	0xbda174ea	-0.07883628
93	0xbd80d9a2	-0.0629151
94	0xbddf796d	-0.10911832
95	0x3c9b138b	0.018930217
96	0x3ddf1572	0.10892762
97	0x3c9586a6	0.018252682
98	0xbd1c9527	-0.03822818
99	0x3dab3982	0.08360578
100	0x3dc17a1c	0.09447119
101	0xbc570410	-0.013123527
102	0xbc72e59a	-0.014825249
103	0xbd451231	-0.04811305
104	0x3c321e2c	0.010871451
105	0xbd25ca16	-0.040475927
106	0x3d99755b	0.07493087
107	0x3c1c885c	0.009553995
108	0x3dcaa5e7	0.098949246
109	0xbcc155c7	-0.023600472
110	0xbdb13a4d	-0.08653698
111	0xbd1d7fdf	-0.038452026
112	0x3d87bb1f	0.066274874
113	0xbd8d8c6c	-0.06911549
114	0x3b80a97d	0.0039264546
115	0x3d9d9c40	0.07695818
116	0x3deda889	0.11604411
117	0x3d42cf6c	0.047561094
118	0x3d3551ec	0.04426758
119	0x3d95b201	0.07309342
120	0xbdbb2512	-0.0913793
121	0xbdb9d25e	-0.090733275
122	0xbdb41244	-0.087925464
123	0xbda28b31	-0.07936705
124	0xbda06621	-0.078319795
125	0x3d88ffe5	0.06689433
126	0xbd0da142	-0.034577616
127	0x3d0cd58b	0.034383338
128	0x3de697f0	0.112594485
129	0xbcefcb5b	-0.029271772
130	0x3da28880	0.079361916
131	0x3da151c5	0.078769244
132	0x3da5a0ef	0.08087336
133	0xbcc90bdd	-0.02454179
134	0xbc931a94	-0.01795701
135	0xbd0c257e	-0.034215443
136	0xbc21d7bf	-0.009878098
137	0x3d882fde	0.06649755
138	0xbd16f7a9	-0.03685728
139	0xbbf3ae07	-0.007436517
140	0x3d089d7a	0.033353306
141	0xbd491e42	-0.04910112
142	0x3df5599d	0.11979983
143	0x3db68df5	0.08913795
144	0x3d88b158	0.06674451
145	0x3d979723	0.07401874
146	0xbd6ee600	-0.058324814
147	0x3def4981	0.11683942
148	0x3ca18641	0.019717338
149	0x3d8c88ca	0.06862028
150	0xbddb6754	-0.10713068
151	0xbc090295	-0.008362432
152	0xbda6d847	-0.081467204
153	0xbd7c0505	-0.061528224
154	0x3bc035ff	0.005865812
155	0xbdb5a0a5	-0.08868531
156	0xbc548c98	-0.012972973
157	0xbd7dee6d	-0.06199496
158	0x3de8ff68	0.1137684
159	0x3d26ee6b	0.040754717
160	0xbb0c934f	-0.0021450107
161	0x3ccdf135	0.02513943
162	0xbd172a3f	-0.036905523
163	0xbdcf146f	-0.10111319
164	0xbd5c845c	-0.053837165
165	0x3b67326c	0.0035277857
166	0xbda06568	-0.07831842
167	0xbdc1d20b	-0.09463891
168	0x3ddf45e4	0.109020025
169	0x3d9e3e93	0.07726779
170	0x3d7ae3d5	0.061252434
171	0xbdd40baf	-0.10353791
172	0x3db5330b	0.08847626
173	0x3d499bd6	0.049220882
174	0xbbdb427d	-0.0066912756
175	0xbda36b87	-0.079794936
176	0xbd6f0195	-0.058351118
177	0xbd0f83c1	-0.03503776
178	0x3d23c196	0.03997954
179	0xbd85603d	-0.065124966
180	0x3c2579b0	0.010099813
181	0x3d428da0	0.047498345
182	0xbdd99394	-0.106238514
183	0xbc933591	-0.017969878
184	0xbc980ff2	-0.01856229
185	0xbd998d81	-0.07497693
186	0x3cfbe1a1	0.030747237
187	0x3c14b11d	0.00907543
188	0x3c7397e8	0.01486776
189	0xbdae1d65	-0.085017
190	0xbb1824c5	-0.0023215276
191	0xbde53c7c	-0.11193177
192	0xbdc49e4c	-0.09600505
193	0x3d3e7672	0.046499677
194	0x3d054689	0.03253797
195	0xbbb97fff	-0.0056610103
196	0xbdab5564	-0.08365896
197	0xbda356ad	-0.079755165
198	0xbb5f4a0f	-0.0034071242
199	0xbde535dd	-0.11191914
200	0x39b7ea65	0.00035079118
201	0x3db20ae2	0.08693482
202	0x3d7d1184	0.061784282
203	0x3d837d1c	0.06420347
204	0x3d75cb7d	0.060008515
205	0x3dd054b1	0.101724036
206	0xbd30699c	-0.043069467
207	0x3b27b84f	0.0025592034
208	0x3bf1ca7d	0.007378875
209	0x3dafab5d	0.08577607
210	0xbdabd592	-0.08390345
211	0xbcdef95b	-0.027218511
212	0x3a73e3e5	0.0009303673
213	0xbcbf7866	-0.02337284
214	0xbdb71736	-0.08939974
215	0xbd859dec	-0.06524262
216	0x3d018f3c	0.03163074
217	0xbda59e1f	-0.080868
218	0xbcb428a2	-0.021992031
219	0x3d21ab6c	0.03947012
220	0xbdd12721	-0.10212541
221	0x3d401556	0.046895348
222	0x3dd44432	0.1036457
223	0xbdce8c43	-0.100853465
224	0xbd4a63d4	-0.04941161
225	0xbd00a4a1	-0.031407002
226	0x3d6f382f	0.05840319
227	0x3d886fa3	0.06661918
228	0xbd6d2511	-0.057896677
229	0xbd8dacc1	-0.06917716
230	0x3d0be5c0	0.034154654
231	0xbcd6afa1	-0.026206793
232	0xbcfb09fc	-0.03064441
233	0xbd87fe65	-0.06640319
234	0x3d88fda9	0.06689007
235	0xbdd9ddd3	-0.10638013
236	0x3da33c82	0.07970525
237	0xbcfa01ca	-0.030518431
238	0x3d572ad9	0.052531097
239	0x3d691aa9	0.05691019
240	0xbdbfac36	-0.093590185
241	0x3cee75b7	0.029108865
242	0xbd3dde94	-0.046354845
243	0xbd5ebbd6	-0.054378353
244	0x3cf293e7	0.029611541
245	0x3d8dc523	0.069223665
246	0x3d711302	0.058856018
247	0x3d7d604e	0.06185942
248	0x3dd8e331	0.10590208
249	0x3da0cce8	0.07851583
250	0xbdb3b549	-0.08774812
251	0xbc604048	-0.013687201
252	0x3db12234	0.08649102
253	0xbcbf1f0b	-0.023330232
254	0x3db13766	0.086531445
255	0xbd94e890	-0.0727092

bias f4 [16]
0	0x3ddee83e	0.108841404
1	0xbd69cd9b	-0.057080846
2	0x3da2e8bc	0.07954547
3	0x3e0cd538	0.13753211
4	0x3bd69586	0.0065485863
5	0xbdd52869	-0.10408098
6	0xba61a758	-0.0008608005
7	0x3dfd2be4	0.12361887
8	0x3dee13f5	0.116249
9	0x3e3245d9	0.17409457
10	0x3c6821ba	0.014168197
11	0x3d457424	0.048206463
12	0x3c18463b	0.009294088
13	0x3e2e3631	0.1701286
14	0xbd623974	-0.055230573
15	0x3e45f4e9	0.19331707

weight f4 [32, 16, 5, 5]
0	0x3d033e46	0.03204181
1	0x3d07c207	0.033144023
2	0xbd226426	-0.03964629
3	0xbd2f0904	-0.042733207
4	0xbcdf9c88	-0.02729632
5	0x3cc1e351	0.023667963
6	0xbc92b69f	-0.017909346
7	0xbc64c780	-0.01396358
8	0x3d07bbef	0.03313821
9	0xbcc7163a	-0.02430259
10	0x3d287602	0.041128166
11	0x3d46833c	0.048465
12	0xbbdc91ef	-0.006731264
13	0xbcb36cee	-0.021902528
14	0xbc2a12f2	-0.0103804935
15	0xbcc981aa	-0.024597961
16	0xbca79e9b	-0.020461371
17	0xbcb738da	-0.022365976
18	0x3c352fa2	0.01105872
19	0xbc960565	-0.01831312
20	0xbd0c9b8a	-0.03432802
21	0x3d0ad05a	0.033890106
22	0xbc350b9a	-0.011050129
23	0x3d1ddb70	0.03853935
24	0x3d0006f6	0.03125664
25	0x3c0b70d5	0.008510788
26	0x3cca5ece	0.02470341
27	0xbd31cc21	-0.043407563
28	0xbc130f98	-0.008975886
29	0xbd37c94c	-0.044869706
30	0x3b20fba4	0.0024564052
31	0xbc2a347d	-0.010388491
32	0xbd333ee0	-0.043761134
33	0xbcb7455d	-0.022371942
34	0x3cc1b04f	0.02364364
35	0x3c17b5b6	0.009259632
36	0x3d2a4b04	0.041575447
37	0xbcce510c	-0.02518513
38	0x3b937f33	0.0045012473
39	0x3d16010b	0.03662209
40	0xbc846bf9	-0.016164767
41	0x3d069741	0.03285909
42	0x3d57db06	0.05269911
43	0xbc8c51a6	-0.017128777
44	0x3d108820	0.03528607
45	0x3cb7bba1	0.022428336
46	0x3d3a1a2d	0.04543512
47	0x3cacaa36	0.021077257
48	0x3c9450d5	0.01810495
49	0xbc828f9f	-0.015937624
50	0x3c725362	0.014790388
51	0xbd094f85	-0.0335231
52	0xbb758f28	-0.003746936
53	0x3d007e91	0.031370703
54	0x3d46e2c7	0.048556115
55	0x3d3845e0	0.044988513
56	0xbd3dc943	-0.046334516
57	0xbd30fe11	-0.043211047
58	0x3d07f84e	0.033195786
59	0x3c0f87c8	0.0087604
60	0xbd405cf0	-0.046963632
61	0xbcd68b8d	-0.02618959
62	0xba87b360	-0.001035314
63	0x3b73d8a0	0.0037207976
64	0xbb836795	-0.0040101507
65	0x3c8bdbea	0.017072637
66	0x3d15454f	0.03644305
67	0x3c33df88	0.010978587
68	0x3c33514a	0.010944674
69	0x3d2aaeca	0.041670598
70	0xbc39e4e1	-0.011346073
71	0x3cd990ac	0.026558243
72	0xbc2aa589	-0.010415443
73	0xbc3414af	-0.0109912595
74	0xbd134aea	-0.035960115
75	0xbce2d783	-0.027690655
76	0x3c5ec161	0.01359591
77	0x3ba554e5	0.0050455206
78	0xbd0d31a4	-0.03447117
79	0xbca538f0	-0.020168751
80	0x3cf94557	0.030428572
81	0x3d0c9270	0.03431934
82	0x3d4f2a51	0.050577465
83	0x3d24bc49	0.040218625
84	0x3c66d5da	0.014089072
85	0x3ca0aa74	0.019612528
86	0x3cba288c	0.022724412
87	0x3d3855b0	0.045003593
88	0x3d152801	0.036415104
89	0x3d363781	0.044486526
90	0xbc68fd28	-0.014220513
91	0xbc1cd7f0	-0.009572968
92	0x3ca8b16e	0.020592418
93	0x3b4c01f4	0.0031129094
94	0xbba57b73	-0.0050501167
95	0x3d50fafb	0.051020604
96	0x3ac424a1	0.001496453
97	0x3cd5a26d	0.026078427
98	0x3d01d2bd	0.031695116
99	0x3cdd574b	0.027019164
100	0x3d1256af	0.0357272
101	0xbd40d95e	-0.047082298
102	0xbc58a69b	-0.013223316
103	0x3d2e6a6a	0.042581953
104	0x3c4f9764	0.012670372
105	0xbc63f85d	-0.013914195
106	0xbd1240db	-0.035706382
107	0x3c050754	0.008119423
108	0xbd0db08c	-0.034592196
109	0x3c39a509	0.011330851
110	0x3ca016cd	0.019542122
111	0x3ceff1c2	0.029290084
112	0xba749514	-0.00093300757
113	0x3d05e845	0.032692213
114	0x3d14a278	0.036287755
115	0xbd020b35	-0.03174897
116	0xbc467594	-0.012112994
117	0xbd24d139	-0.040238593
118	0x3d1f14e8	0.038838297
119	0xbd07701b	-0.033065896
120	0xbcd77cd7	-0.026304645
121	0xbd07cbc0	-0.033153296
122	0x3d13205d	0.035919536
123	0x3b07948a	0.0020687901
124	0xba9ead32	-0.001210606
125	0xbd040f31	-0.03224105
126	0x3d148b2e	0.036265545
127	0x3c253eab	0.010085742
128	0xbc9f0619	-0.019412087
129	0xbd48864e	-0.048956208
130	0xbc593254	-0.013256628
131	0xbd3e7705	-0.046500225
132	0xbd279895	-0.040916998
133	0xbd266438	-0.04062292
134	0xbc04b95d	-0.008100835
135	0x3cfeb3c8	0.031091586
136	0x3c2c9034	0.010532428
137	0xbcedda6b	-0.029034814
138	0x3c4f53db	0.01265427
139	0x3d31805f	0.043335315
140	0xbd352fe4	-0.044235125
141	0xbd293d6f	-0.041318353
142	0x3c7d2251	0.015450076
143	0xbc90b66f	-0.017665116
144	0xbd17e7b1	-0.037086193
145	0xbd4187b6	-0.047248565
146	0xbbdab004	-0.0066738147
147	0xbc252277	-0.010079018
148	0xbd250877	-0.040291276
149	0xbcda25a5	-0.026629278
150	0xbc91f4d5	-0.01781694
151	0x3d452e6d	0.04813998
152	0xbd28fa24	-0.041254178
153	0x3d5113ca	0.051044263
154	0xbcd446d8	-0.025912687
155	0x3d3bebbb	0.045879107
156	0xbc97b706	-0.01851989
157	0xbc536060	-0.012901396
158	0xbcb3cc15	-0.0219479
159	0x3c92d40f	0.017923383
160	0xbd02084c	-0.031746194
161	0x3d180833	0.037117194
162	0x3d191255	0.037371
163	0x3c9fc5eb	0.019503554
164	0x3cbb9e0f	0.022902517
165	0x3ccee025	0.025253365
166	0xbd222c8a	-0.039593257
167	0x3c8e4136	0.01736508
168	0xbce9a23b	-0.02851974
169	0x3d2688f5	0.040657956
170	0x3c32af56	0.010906061
171	0x3bfe70f2	0.007764929
172	0x3cf4caf2	0.029881928
173	0x3d4d9df2	0.050199457
174	0xbcfdc193	-0.030976092
175	0xbcbdec15	-0.023183862
176	0x3cfad8ef	0.03062102
177	0xbc600efc	-0.013675448
178	0xbb52c53c	-0.0032161018
179	0x3cce3daf	0.025175897
180	0x3d4d2510	0.050084174
181	0x3c179968	0.0092528835
182	0xbc74d085	-0.014942293
183	0xbd398e34	-0.04530163
184	0x3cbf9576	0.023386698
185	0x3d130ecb	0.03590278
186	0xbcaaf22e	-0.020867433
187	0x3ade3fc4	0.001695626
188	0x3c7165a1	0.014733703
189	0xbc5d67c2	-0.013513507
190	0xb9cf86be	-0.00039582507
191	0x3bfb7195	0.007673452
192	0x3cc01126	0.023445677
193	0x3d5592c5	0.052141923
194	0xbc7b0767	-0.015321589
195	0xbc9b4640	-0.018954396
196	0xbca7dbba	-0.020490516
197	0x3d16437f	0.036685463
198	0x3c0c31c4	0.008556787
199	0x3cc34893	0.023838317
200	0x3c151d6d	0.009101254
201	0x3c37457c	0.011186
202	0xbcc4e919	-0.02403693
203	0x3d2c48a4	0.042061463
204	0x3cd8549e	0.026407536
205	0xbcf1396f	-0.029446332
206	0x3b8730a9	0.004125674
207	0xbc1f7ad3	-0.009733873
208	0x3be427de	0.0069627604
209	0xbcb2910c	-0.02179768
210	0x3d1a06be	0.037604086
211	0xbc9649ee	-0.0183458
212	0x3cd6a9d4	0.026204027
213	0xbce72abb	-0.028218618
214	0x3d5af364	0.05345477
215	0x3cb2a5f3	0.021807646
216	0xbc5e8e3c	-0.013583716
217	0xbc75d130	-0.0150034875
218	0xbd12a4c9	-0.035801683
219	0x3be5e6c2	0.007016034
220	0x3d318e33	0.043348502
221	0xbd43600e	-0.047699027
222	0x3c5494cd	0.01297493
223	0x3d3a1dc2	0.045438536
224	0x3c881008	0.016609207
225	0xbca47709	-0.020076292
226	0x3cf4998d	0.029858375
227	0x3b0f06b8	0.0021824073
228	0x3d52f64b	0.051504415
229	0xbca73786	-0.020412218
230	0xbcbc1e52	-0.022963677
231	0xbd2af279	-0.041735146
232	0xbca79b45	-0.02045978
233	0xbcb868a2	-0.02251083
234	0xbd327e31	-0.043577377
235	0xbd309bc4	-0.0431173
236	0x3d59eef9	0.053206418
237	0xbb957a24	-0.0045616794
238	0x3d04b7c6	0.032401823
239	0x3cac5e59	0.021041082
240	0x3c8b0d4a	0.01697411
241	0xbd343026	-0.04399123
242	0x3c86ade6	0.016440343
243	0x3d35e20a	0.04440502
244	0x3d5581fd	0.05212592
245	0xbbbfbc45	-0.005851301
246	0x3ccb3611	0.024806054
247	0x3d2d84f2	0.042363115
248	0x3d006153	0.031342816
249	0xbce2d15f	-0.027687727
250	0x3cabb207	0.020958913
251	0xbd150b64	-0.036387816
252	0xbcd10820	-0.02551657
253	0xbd306318	-0.043063253
254	0x3ab7a310	0.0014010388
255	0x3cf2f537	0.029657943

bias f4 [32]
0	0xbd074dc1	-0.033033136
1	0xbd2ba2c9	-0.04190329
2	0xbaae9ff9	-0.0013322822
3	0xbc76b396	-0.015057465
4	0x3dcf5421	0.10123468
5	0xbb7dcf39	-0.003872825
6	0xbc8bdea9	-0.017073946
7	0x3ca3d379	0.019998299
8	0xbcab1830	-0.020885557
9	0xbd23d0d1	-0.039994065
10	0x3d87aaef	0.066244
11	0xbceaa807	-0.028644575
12	0x3d7dbd14	0.061947897
13	0xbc965aaf	-0.018353788
14	0x3ccdea0d	0.025136018
15	0x3c15cdab	0.009143273
16	0xb642c4bb	-2.9022765e-06
17	0x3d8134bf	0.06308889
18	0xbd22c975	-0.039742906
19	0x3b9fc9f2	0.0048763687
20	0x3acff7fc	0.0015866752
21	0x3c8cd113	0.017189538
22	0x3dbbff80	0.09179592
23	0x3dd52833	0.10408058
24	0x3dc8fefe	0.09814261
25	0xbd2878a7	-0.041130688
26	0x3d841cd5	0.06450812
27	0x3d37d130	0.04487723
28	0xbd4a6da3	-0.049420964
29	0x3ba1d3d0	0.00493858
30	0xbcf1393a	-0.029446233
31	0x3c568e17	0.0130954

weight f4 [120, 800]
0	0x3aa605e3	0.0012666549
1	0xbcf160bf	-0.029465077
2	0xbcafab8d	-0.021444106
3	0xbc2a97b4	-0.010412145
4	0xbc463a38	-0.012098841
5	0x3d008891	0.03138024
6	0x3c5a814a	0.013336489
7	0x3c7742c2	0.0150916
8	0x3cf7792a	0.030209143
9	0xbc106b68	-0.00881467
10	0x3c435398	0.011921786
11	0x3d06c1ad	0.032899547
12	0xbc9b3162	-0.018944446
13	0x3c9cf221	0.019158425
14	0xbd082c38	-0.033245295
15	0x3cb49e3a	0.022048105
16	0x3d0cb0d2	0.034348316
17	0x3c02451d	0.007951048
18	0xbcf12d2e	-0.029440489
19	0x3c3ec225	0.011642967
20	0xbc089da3	-0.008338365
21	0xbccf2da4	-0.025290318
22	0x3b1035bd	0.0022004687
23	0xbc0bb256	-0.008526405
24	0xbce1c3f1	-0.027559252
25	0x3cb44424	0.022005148
26	0x3d040579	0.03223178
27	0x3c9b37bc	0.018947475
28	0x3c7d6d14	0.015467901
29	0x3cf9a739	0.030475246
30	0xbc64a58b	-0.013955484
31	0xbd0dee84	-0.034651294
32	0xbca174af	-0.01970896
33	0xbc878a59	-0.016545461
34	0xb9e92d18	-0.0004447482
35	0x3b0eefc2	0.0021810387
36	0xbc0aed16	-0.008479377
37	0xbc2b6fda	-0.010463679
38	0xbba1a1c8	-0.004932616
39	0x3c3ac36c	0.011399131
40	0x3cb7d7bd	0.02244174
41	0x3cdd9424	0.027048178
42	0xbcb2f50a	-0.02184536
43	0x3c1264e3	0.008935186
44	0xbd09f61a	-0.033681966
45	0xbcfc4814	-0.030796088
46	0x3b7dc809	0.0038723967
47	0xbb3109aa	-0.0027013817
48	0xbcedae2f	-0.029013721
49	0xbc987644	-0.018611081
50	0xbce23c87	-0.027616752
51	0x3d0d22ad	0.034456898
52	0x3cf13659	0.02944486
53	0x3cf6bf67	0.030120565
54	0x3a2378e7	0.00062359724
55	0x3c9ef113	0.019402063
56	0x3a437832	0.000745657
57	0xbbc73100	-0.0060788393
58	0x3d0a14cd	0.033711243
59	0x3cad4c85	0.021154651
60	0xbbd8d848	-0.0066175796
61	0xbcdd9b9b	-0.027051738
62	0xbbd0fd9a	-0.006377888
63	0xbcd5f91a	-0.026119757
64	0x3d047b16	0.032343946
65	0x3c8633da	0.016382147
66	0xbb37d473	-0.0028050214
67	0xbcb32ced	-0.021872008
68	0x3d069f9d	0.032867063
69	0xbcb740e4	-0.02236981
70	0xbc25f688	-0.010129578
71	0x3cf1ddca	0.029524703
72	0x3c9b9bf5	0.018995265
73	0xbc5fb4e2	-0.013653966
74	0xbc64f1e4	-0.013973687
75	0x3cfb68f6	0.030689698
76	0xbc617ef4	-0.013763178
77	0x3c171faa	0.009223858
78	0x3c28a6e3	0.010293695
79	0x3c0d3c1a	0.008620286
80	0x3be05e81	0.0068472032
81	0xbccb249f	-0.024797736
82	0x3a193cb1	0.00058455305
83	0x3b6b5958	0.0035911407
84	0xbc88edac	-0.016714893
85	0x3ce90930	0.028446764
86	0x3c988f64	0.018623061
87	0x3c9997b3	0.018749094
88	0xbb32a15e	-0.0027256827
89	0xbc6b3fb4	-0.01435845
90	0x3cd83a09	0.02639486
91	0x3ac84d75	0.0015281873
92	0x3c834664	0.016024776
93	0x3c7613cc	0.015019368
94	0xbcaac2b3	-0.020844793
95	0xba87da5a	-0.0010364756
96	0xbb5f6aa3	-0.003409066
97	0xbc561570	-0.013066635
98	0x3c9f1d10	0.019423038
99	0xbc4c8e70	-0.012485132
100	0x3bdb46dc	0.0066917967
101	0x3cf9e622	0.030505244
102	0xbc2b030a	-0.010437736
103	0xbc7b2f10	-0.015331045
104	0xbcaaa3e7	-0.020830108
105	0x3cf8ae0f	0.030356435
106	0xbcfe6658	-0.03105466
107	0xbc49c153	-0.0123141585
108	0xbc7fda40	-0.015616
109	0x3ce97063	0.028495973
110	0xbce7182d	-0.02820977
111	0x3c1eb9dd	0.009687868
112	0x3cecfbf3	0.028928732
113	0x3ba83fda	0.005134565
114	0xbce18ace	-0.027532008
115	0x3c6fcc7b	0.014636154
116	0xbbdcdf04	-0.0067404527
117	0xbc9c5cc1	-0.019087197
118	0x392f928d	0.00016743895
119	0xbc2480cd	-0.010040474
120	0xbcd81d09	-0.026381033
121	0x3c47d74c	0.012197327
122	0x3d071709	0.032980952
123	0xbcda82d1	-0.026673706
124	0xba8f757e	-0.001094505
125	0x3c881d62	0.016615573
126	0xbcef14a2	-0.029184643
127	0xbc6abbc8	-0.014326997
128	0xbc0bb1bf	-0.008526265
129	0x3bdc7286	0.0067275194
130	0xbacb614a	-0.0015516665
131	0x3ce46eaa	0.0278848
132	0xbc835cb0	-0.016035408
133	0xbbe1fbda	-0.006896478
134	0xbc60b966	-0.013716077
135	0x3cebcc26	0.028783869
136	0x3cb777db	0.022396019
137	0xbd01abbd	-0.031657923
138	0xbcbd4003	-0.023101812
139	0xbd0a61f4	-0.03378482
140	0xbcb93760	-0.022609413
141	0x3c6bcd73	0.014392245
142	0x3cfe5f68	0.031051353
143	0x3baedb03	0.005336167
144	0x3c58c679	0.013230913
145	0x39af0b88	0.00033387193
146	0x3cf3fce3	0.029783672
147	0xbc866d88	-0.01640965
148	0xbcc0de06	-0.023543369
149	0x3b8affc8	0.0042419173
150	0x3cd7454a	0.026278157
151	0xbd0622e9	-0.032748137
152	0x3ce04af6	0.027379494
153	0x3c53d06e	0.0129281115
154	0xbce8c587	-0.0284145
155	0x3b03bae2	0.0020100405
156	0x3d07aa29	0.03312126
157	0x3c784867	0.015153981
158	0x3be05030	0.0068454966
159	0xbc88befe	-0.016692635
160	0xbc790e0f	-0.015201106
161	0x3cf1d352	0.02951971
162	0xbcbf4df2	-0.023352597
163	0x3c922f11	0.017844709
164	0xbb46e034	-0.0030346038
165	0xbce71348	-0.028207436
166	0xbca67724	-0.020320483
167	0xbc1a6bd0	-0.009425119
168	0x3d05bd73	0.032651376
169	0x3c8e12be	0.017342921
170	0xbc4ce1c6	-0.012505
171	0x3cca1b83	0.024671322
172	0x3bfd72fe	0.0077346554
173	0x3c05002e	0.008117719
174	0xbbab3874	-0.0052252356
175	0x3cf2d78c	0.029643796
176	0xbc988329	-0.01861723
177	0x3c8d5c7a	0.01725601
178	0x3cb515c1	0.0221051
179	0xbcec2611	-0.028826745
180	0xbd0ec905	-0.034859676
181	0xbd0598c7	-0.032616403
182	0x3c4c1e2d	0.012458366
183	0x3c83cfae	0.01609024
184	0xbc3ff7c5	-0.011716788
185	0xbc607621	-0.013700039
186	0xbc5d0453	-0.0134898005
187	0x3c7d75fc	0.015470024
188	0xbc1403fd	-0.009034154
189	0x3d06cf69	0.032912645
190	0xbc2efbfa	-0.010680193
191	0xbcb7f578	-0.022455916
192	0x3b3d3621	0.0028871375
193	0x3c972fc0	0.018455386
194	0x3c824bdf	0.015905319
195	0xbca40f9f	-0.02002698
196	0xbc85b712	-0.016322646
197	0xbc0a6c7e	-0.008448718
198	0xbc940954	-0.018070854
199	0x3c21f256	0.009884438
200	0x3caec148	0.021332398
201	0xbad9da0f	-0.0016620773
202	0x3d08859b	0.03333054
203	0xbc28965a	-0.010289753
204	0x3bdf838a	0.0068211006
205	0xbc9bd269	-0.01902123
206	0xbceb7da5	-0.028746435
207	0x3cd6edc7	0.026236428
208	0xbcfa3c1d	-0.030546242
209	0x3a029331	0.00049810397
210	0x3c04fd1d	0.0081169875
211	0xbd0b24f7	-0.0339708
212	0x3c78bc36	0.015181592
213	0xbc8113a3	-0.015756434
214	0x3c1882f3	0.0093085645
215	0x3c9292a6	0.017892193
216	0x3cb19e6e	0.02168199
217	0xbc13bae0	-0.009016722
218	0x3c805940	0.015667558
219	0x3cafe938	0.021473512
220	0x3ccbd965	0.024883935
221	0xbb57f74b	-0.0032953795
222	0xbcb39d56	-0.02192561
223	0x3ce15237	0.027505023
224	0xbcf35efa	-0.029708374
225	0x3c754c8d	0.014971864
226	0x3cb10066	0.021606635
227	0x3c81bd37	0.015837295
228	0x3be7470e	0.007058031
229	0xbcf0a070	-0.029373378
230	0x3cf7f6e9	0.030269103
231	0x3c9c9770	0.01911518
232	0x3d03187e	0.03200578
233	0x3c5b812f	0.013397499
234	0x3ce1ee1a	0.027579356
235	0x3ce9f28c	0.028558038
236	0x3cd1c8eb	0.0256085
237	0xbc5ddb5f	-0.013541072
238	0xbc86e6e6	-0.016467523
239	0x3d0d2ecc	0.034468457
240	0xbcb92fac	-0.02260574
241	0x3c4bc9c3	0.01243824
242	0xbc838d39	-0.016058551
243	0x3d0e2cf9	0.034710858
244	0x3bf239df	0.0073921527
245	0xbca878dd	-0.020565445
246	0x3ce18a36	0.027531724
247	0x3ce22c5c	0.027609043
248	0xbd10427c	-0.035219654
249	0xbcac390a	-0.021023292
250	0xbc3207d3	-0.010866123
251	0xbc9ac689	-0.018893497
252	0x3c366d86	0.011134511
253	0xbab05191	-0.0013452043
254	0xbc9b8095	-0.018982211
255	0xbc88d3a5	-0.016702482

bias f4 [120]
0	0xbd08bc12	-0.033382483
1	0xbce7a707	-0.028277887
2	0xbd06d266	-0.032915495
3	0xbcb1070f	-0.021609811
4	0xbcd094a5	-0.025461504
5	0xbc8653f5	-0.016397456
6	0x3c6054c8	0.013692088
7	0x3a8c0b6f	0.001068456
8	0xbc1a4dff	-0.00941801
9	0xbb249040	-0.0025110394
10	0x3d127adc	0.0357617
11	0x3cff0be4	0.0311336
12	0xbbb02f23	-0.005376713
13	0xba1053c6	-0.0005505647
14	0x3c9c918b	0.019112369
15	0xbc93ef8a	-0.018058557
16	0xbc8b9771	-0.017039986
17	0x3b22a7b6	0.0024819202
18	0xbd1016df	-0.03517806
19	0x3b5a9339	0.0033351912
20	0xbcced749	-0.02524914
21	0xbc91ea28	-0.01781185
22	0xbcd2f001	-0.025749208
23	0x3cc1b117	0.023644013
24	0xbd1eefbb	-0.038802844
25	0xbc3a31b0	-0.0113643855
26	0xbd042bcb	-0.032268327
27	0xbc95d0ce	-0.018288042
28	0x3cf58856	0.029972237
29	0x3bd4090a	0.006470804
30	0x3d1da42b	0.03848664
31	0x3cd68830	0.026187986
32	0xbce8d02f	-0.028419582
33	0x3c4e17e7	0.012578941
34	0x3c8aa3fe	0.0169239
35	0x3d7ae778	0.061255902
36	0x3b742b10	0.0037257113
37	0x3c1ba0c3	0.009498778
38	0x3cdfde5a	0.027327705
39	0xbcd09ca0	-0.02546531
40	0xbd0688cc	-0.032845303
41	0xbc8be633	-0.017077541
42	0xbc19585d	-0.009359446
43	0x3d20b799	0.039237592
44	0xbcf27503	-0.029596811
45	0xbc1131b6	-0.00886195
46	0xbbf7b474	-0.0075593535
47	0xbca3ddec	-0.020003282
48	0xbcc5cce9	-0.02414556
49	0xbba04b23	-0.0048917695
50	0x3b584f0d	0.0033006102
51	0x3d5bdb63	0.05367602
52	0xbc957c62	-0.018247787
53	0x3acd4a8c	0.0015662475
54	0xbc169a10	-0.009192005
55	0x3b7325e9	0.0037101454
56	0x3bd23338	0.006414797
57	0x3d229a89	0.039698157
58	0xbc693f2b	-0.014236252
59	0xbcfbebd6	-0.030752104
60	0xbc686e6a	-0.014186481
61	0x3c60e663	0.0137268035
62	0xbbc54b00	-0.0060209036
63	0xbc88c002	-0.016693119
64	0x3d344811	0.04401404
65	0xbc28d0dd	-0.010303703
66	0x3c0227e4	0.007944081
67	0x3bc45438	0.005991485
68	0x3caf1499	0.021372126
69	0x3cb5a6ee	0.022174325
70	0xbb1481a8	-0.002266029
71	0x3d539420	0.051654935
72	0x3cb8274e	0.02247968
73	0x3bfbb8e3	0.0076819523
74	0x3d157f09	0.036498103
75	0xbc42233c	-0.011849221
76	0xbc0e7a6d	-0.008696181
77	0xbbe8ae5c	-0.0071008634
78	0xbca6602e	-0.020309534
79	0xbc8083e7	-0.015687896
80	0x3d09e1d2	0.033662625
81	0x3ce7ea66	0.028310012
82	0xbcd2f911	-0.02575353
83	0xbbeebe99	-0.0072859046
84	0x3d32ba67	0.0436348
85	0xb9be97f4	-0.00036352838
86	0xbc8b6f3f	-0.01702082
87	0x3d630dd2	0.055433102
88	0x3c311208	0.010807522
89	0x3ae1ba3f	0.0017221643
90	0x3ca0cb38	0.019628152
91	0x3c4faabe	0.012674985
92	0x3b2b9f4a	0.0026187473
93	0xbbfa4ecf	-0.0076387892
94	0x3ca3c3e1	0.019990863
95	0x3cf486cd	0.029849434
96	0x3d52fe0c	0.05151181
97	0xbcbe98e2	-0.02326626
98	0xbca0745d	-0.019586736
99	0xbbca739c	-0.0061783325
100	0xbc9c9138	-0.019112214
101	0x3c2f8192	0.010712044
102	0xbb6479a9	-0.0034862554
103	0x3a394666	0.000706768
104	0x3b8af746	0.004240903
105	0x3ce27f63	0.027648633
106	0x3c813615	0.015772859
107	0xbbc89fdd	-0.006122573
108	0xbc7a32a2	-0.015270861
109	0xbc834fe5	-0.016029308
110	0xbc80d20a	-0.015725154
111	0xbc724695	-0.014787336
112	0xbc38e748	-0.0112856105
113	0xbcff1397	-0.03113727
114	0xbca7c662	-0.020480338
115	0x3c4f2ebb	0.012645419
116	0xba7b6248	-0.0009589535
117	0xbcc5290c	-0.024067424
118	0xbca13a59	-0.019681143
119	0xbc97984c	-0.018505238

weight f4 [84, 120]
0	0x3c016c62	0.007899376
1	0xbd8ad334	-0.06778565
2	0x3d2c093e	0.042001
3	0xbd104f85	-0.035232086
4	0xbd570dab	-0.05250327
5	0xbc997e80	-0.018737078
6	0xbd6ac0ce	-0.05731278
7	0xbc095fa2	-0.008384617
8	0x3d9a7e54	0.075436264
9	0x3d840f78	0.06448263
10	0xbd596914	-0.053078726
11	0xbcb55440	-0.0221349
12	0xbdb3553d	-0.08756492
13	0x3c47fd73	0.012206423
14	0x3d8075f6	0.06272499
15	0xbbf70838	-0.0075388215
16	0x3d8d7544	0.06907132
17	0xbdb55fce	-0.08856164
18	0x3d76a40e	0.06021505
19	0x3d1d4ae3	0.038401496
20	0xbda2b7a4	-0.07945183
21	0xbc85f43c	-0.016351812
22	0xbd55e899	-0.052223776
23	0xbda76e8e	-0.081753835
24	0xbdbd9887	-0.09257608
25	0x3daf617c	0.085635155
26	0x3ca97ca1	0.02068931
27	0xbd5d250f	-0.05399042
28	0xbda75d25	-0.08172063
29	0x3db8f50d	0.09031115
30	0xbd016717	-0.031592455
31	0x3d99c077	0.07507413
32	0xbd2cd602	-0.04219628
33	0x3d506671	0.050878946
34	0x3d03541a	0.032062627
35	0x3d55f41f	0.052234765
36	0x3cc79b24	0.024365969
37	0xbc8ab8ff	-0.016933916
38	0x3d034800	0.032051086
39	0xbd597227	-0.05308738
40	0x3927be00	0.00015997142
41	0x3c455f48	0.012046643
42	0x3d95521c	0.07291052
43	0x3d209809	0.039207492
44	0xbd54e290	-0.05197388
45	0xbda3132b	-0.079626404
46	0x3be2666a	0.0069091814
47	0x3bea23ee	0.0071453964
48	0x3d91eb8e	0.071250066
49	0x3d03f899	0.032219503
50	0x3da0440f	0.07825481
51	0xbd1db589	-0.038503204
52	0x3b0aa61a	0.0021156133
53	0x3d4e02fb	0.05029581
54	0xbcdb1490	-0.026743203
55	0x3bff1c34	0.0077853445
56	0xbca1407a	-0.019684065
57	0xbd2449cb	-0.040109437
58	0xbc8cf1a3	-0.017205065
59	0x3c465d1a	0.012107158
60	0x3d9ec9de	0.07753347
61	0x3d970ed0	0.07375872
62	0x3d7b8a4a	0.06141118
63	0xbb167db8	-0.0022963118
64	0x3db3c0a6	0.08776979
65	0xbd9afdb9	-0.07567925
66	0x3d67ac5b	0.056560855
67	0xbd04f537	-0.032460418
68	0x3d9261c2	0.07147552
69	0x3cbf7772	0.023372386
70	0xbd1545ac	-0.036443397
71	0x3df77fb1	0.12084902
72	0x3d950623	0.07276561
73	0xbc36e499	-0.0111629
74	0x3c0bfd41	0.008544267
75	0xbd8c9da2	-0.068660036
76	0x3d420356	0.047366463
77	0x3d18b9b8	0.03728649
78	0x3cd48415	0.025941888
79	0x3db56412	0.088569775
80	0x3d0c26f8	0.03421685
81	0x3c62eb96	0.013850113
82	0x3d97d56a	0.074137524
83	0x3d71b575	0.05901094
84	0xbc6b54e4	-0.014363501
85	0xbd290568	-0.04126492
86	0x3d0b9222	0.03407491
87	0xbcf268f6	-0.029591065
88	0xbc802e78	-0.015647158
89	0xbd963186	-0.073336646
90	0x3d9127a5	0.0708764
91	0xbdb16af3	-0.08662977
92	0x3d23af6b	0.039962213
93	0x3da96406	0.08271031
94	0x3d69fce7	0.057125952
95	0xbbd23800	-0.006415367
96	0x3d3d5de4	0.04623212
97	0xbbaec7e8	-0.0053338893
98	0xbd657a79	-0.056025002
99	0xbc41dcff	-0.011832475
100	0x3c96899f	0.01837617
101	0xbd8692fc	-0.06571004
102	0xbd76d9c4	-0.06026627
103	0xbdbac0a5	-0.09118775
104	0x3ce17a09	0.027524011
105	0x3d632d07	0.055462863
106	0xbc56e744	-0.013116661
107	0xbc9cd760	-0.019145668
108	0x3d18d856	0.03731569
109	0x3d4e29d9	0.050332878
110	0x3bcab250	0.0061858073
111	0xbc0ad0ec	-0.008472662
112	0x3d7eef5a	0.062239982
113	0x3d70428c	0.058657214
114	0x3db72198	0.089419544
115	0x3cfcda1c	0.030865721
116	0x3d543929	0.051812325
117	0xbc80a3e8	-0.015703157
118	0xbd1e255c	-0.038609847
119	0xbd843144	-0.06454709
120	0xbcc8ba62	-0.024502937
121	0x3d901850	0.07035887
122	0xbcdd1ace	-0.02699032
123	0xbd0f2a20	-0.034952283
124	0x3cf4db3c	0.029889695
125	0xbdacaec6	-0.08431773
126	0xbd710c6c	-0.058849737
127	0x3d379ee7	0.044829275
128	0x3bb1a9fe	0.005421876
129	0xbd8829da	-0.066486076
130	0x3da7f6af	0.08201348
131	0x3d80e43c	0.06293532
132	0xbd86f841	-0.065903194
133	0xbdb3fda8	-0.087886155
134	0x3db8c164	0.09021261
135	0x3c67b9f1	0.014143453
136	0x3c745083	0.014911774
137	0x3c071080	0.00824368
138	0xbd7587f5	-0.05994411
139	0x3b5adf4b	0.0033397253
140	0xbdb3a4fa	-0.08771701
141	0x3d3f0f51	0.046645466
142	0xbd38762a	-0.045034565
143	0x3d82226c	0.06354222
144	0x3d67d004	0.056594864
145	0xbc57dc05	-0.013175015
146	0xbdb3ff07	-0.08788877
147	0xbcbde7ab	-0.023181757
148	0xbb7febfe	-0.0039050574
149	0x3c298586	0.010346776
150	0x3c719f73	0.014747488
151	0xbd801dc4	-0.06255677
152	0xbd867348	-0.06564957
153	0xbc37c42f	-0.011216207
154	0x3d85e941	0.0653863
155	0x3d31b05a	0.043381073
156	0x3dab5828	0.08366424
157	0xbcab1345	-0.020883212
158	0x3db7b613	0.08970275
159	0x3d9788e9	0.073991604
160	0xbdb9bc83	-0.09069159
161	0x3d96f2ac	0.07370505
162	0x3d769d9a	0.060208894
163	0xbd1cfc7d	-0.03832673
164	0x3c768b09	0.015047797
165	0x3d232474	0.039829686
166	0x3d27fd7d	0.04101323
167	0x3d706f80	0.058700085
168	0xbc58bcbf	-0.013228594
169	0x3d8e7286	0.06955437
170	0x3d616a8c	0.05503325
171	0x3d50a392	0.050937243
172	0xbd77f861	-0.060539607
173	0x3d49bcc5	0.04925229
174	0xbd8f218a	-0.06988819
175	0xbd92ff60	-0.07177615
176	0x3dac62ff	0.084173195
177	0xbabee452	-0.0014563894
178	0x3dbdb571	0.09263123
179	0xbd1b868b	-0.037970107
180	0xbd11832f	-0.035525497
181	0xbdb2ef94	-0.08737102
182	0xbd2079db	-0.03917871
183	0x3c0090ac	0.007846992
184	0x3d269903	0.040673267
185	0x3d30a288	0.043123752
186	0xbc9fa2aa	-0.019486744
187	0x3db1b942	0.08677913
188	0x3d38e61c	0.045141324
189	0x3d74e025	0.059784073
190	0x3d55e211	0.052217547
191	0x3dcf9d03	0.101373695
192	0xbd5051b7	-0.05085918
193	0xbd94073c	-0.07227942
194	0x3db90ca2	0.09035613
195	0x3cd33964	0.025784202
196	0x3d8e9652	0.06962265
197	0xbd5c15e1	-0.053731803
198	0x3cbfcddb	0.02341359
199	0x3c932dd0	0.017966181
200	0xbd84f972	-0.064928904
201	0xbd256fcf	-0.040389832
202	0x3d9d2b9a	0.07674332
203	0x3d8d88ba	0.06910844
204	0x3c208125	0.009796415
205	0x3d992803	0.07478335
206	0x3cd673b9	0.026178228
207	0xbd917405	-0.07102207
208	0xbcac1d9b	-0.02101021
209	0xbc2e7a27	-0.010649241
210	0xbd9ab799	-0.0755455
211	0xbbf115b3	-0.007357323
212	0xbdb8f73e	-0.09031533
213	0xbda29b1b	-0.0793974
214	0x3d6a3a7e	0.05718469
215	0xbd4d8246	-0.050173067
216	0x3d6462bd	0.055758227
217	0x3c79b0ce	0.015239907
218	0xbb3f1f00	-0.0029162765
219	0xbd41c428	-0.04730621
220	0x3d78ee0d	0.060773898
221	0x3d86ff7d	0.06591699
222	0x3bb49674	0.0055110995
223	0xbcd5de88	-0.026107088
224	0x3b19d9d4	0.0023475783
225	0xbd635be3	-0.055507552
226	0x3d81fe6a	0.06347354
227	0x3d4aa3ee	0.04947274
228	0x3da23544	0.07920316
229	0xbcd13b8f	-0.025541095
230	0xbd76b72d	-0.060233284
231	0xbd0b1e89	-0.033964667
232	0xbd3f2014	-0.04666145
233	0x3d4c4eb4	0.049879745
234	0xbc3b4850	-0.011430815
235	0x3afb2fa7	0.0019163982
236	0xbd3f4c1c	-0.046703443
237	0x3b3a8c40	0.0028464943
238	0x3bd0db1e	0.006373777
239	0xbd5c08dd	-0.05371939
240	0xbdb9423e	-0.09045838
241	0xbd988faf	-0.074492805
242	0x3d93503c	0.07193038
243	0x3c94ee75	0.018180111
244	0xbd04b0f3	-0.032395314
245	0xbcbc8bc8	-0.023015872
246	0xbcfd4bad	-0.030919874
247	0x3b73f1ff	0.0037223098
248	0x3d58297d	0.05277394
249	0x3c21bc98	0.009871624
250	0xbd92e300	-0.07172203
251	0x3d1a91c3	0.037736665
252	0x3db63ba5	0.08898095
253	0xbd33001b	-0.043701272
254	0xbda4a260	-0.08038783
255	0x3d063652	0.032766648

bias f4 [84]
0	0xbdb5edd1	-0.088832505
1	0xbb2f6b98	-0.0026767012
2	0x3caae97f	0.020863293
3	0xbd66e24b	-0.056368154
4	0x3d95802d	0.07299838
5	0x3d180e0f	0.037122782
6	0x3d00c4bc	0.03143762
7	0x3e17d19a	0.1482605
8	0xbd095369	-0.03352681
9	0x3e0d815b	0.13818876
10	0xbd044176	-0.03228899
11	0xbc7289bc	-0.014803346
12	0xbdb2fb37	-0.08739322
13	0x3e0906c8	0.13381493
14	0x3ce64ae4	0.028111883
15	0xbc3d00c8	-0.011535831
16	0xbd43ee2a	-0.047834553
17	0xbd7b0974	-0.061288312
18	0x3d293227	0.041307595
19	0xbd6f0448	-0.058353692
20	0xbd591f70	-0.053008497
21	0xbcade717	-0.021228356
22	0x3c93a362	0.018022243
23	0x3d2c776c	0.042106077
24	0x3afc3880	0.0019242913
25	0xbd5a00e0	-0.05322349
26	0xbace9b5a	-0.0015762851
27	0x3e1070c4	0.14105517
28	0x3d0aaa23	0.03385366
29	0xbd373f89	-0.044738326
30	0xbd943a5c	-0.07237694
31	0xbcf9f156	-0.030510586
32	0xbd270cf0	-0.040783823
33	0xbabebefd	-0.0014552769
34	0x3e0ecc08	0.13945019
35	0x3d7b4269	0.06134263
36	0x3da03c71	0.07824028
37	0x3d332a81	0.043741707
38	0x3db5a5da	0.08869524
39	0xbd932e00	-0.07186508
40	0xbc77a1d1	-0.015114264
41	0xbda6873d	-0.081312634
42	0xbd08d385	-0.033404846
43	0x3dcd3cec	0.100213856
44	0x3d95338a	0.07285221
45	0x3d75e7f3	0.060035657
46	0x3e10c706	0.14138421
47	0xbd8e1bee	-0.06938921
48	0x3de8c463	0.11365583
49	0x3c0e5f7d	0.008689758
50	0x3d767827	0.06017318
51	0xbd4fb9c6	-0.050714277
52	0xbd8613ef	-0.06546771
53	0x3d6aa19f	0.05728304
54	0xbc28dfdb	-0.010307278
55	0xbdda8b62	-0.106711164
56	0x3db4c255	0.088261284
57	0xbd3a0a93	-0.04542024
58	0xbd4b4a7f	-0.049631592
59	0xbd7a9b9a	-0.06118355
60	0x3d025944	0.03182341
61	0xbcef81d2	-0.029236708
62	0x3dba00b8	0.09082168
63	0x3d935131	0.071932204
64	0x3de4fdc0	0.111812115
65	0xbb555a85	-0.0032555175
66	0x3cd0724e	0.02544513
67	0xbd038147	-0.03210571
68	0xbdc0909a	-0.094025806
69	0x3d9900d2	0.074708596
70	0x3d713635	0.058889586
71	0xbd4dc506	-0.050236724
72	0x3d8d8a71	0.06911171
73	0x3c68d5c5	0.014211123
74	0xbdad331f	-0.08457016
75	0x3e2c2702	0.16811755
76	0x3cf57570	0.029963225
77	0x3d634c04	0.055492416
78	0x3d4b4740	0.049628496
79	0x3c9d9dfc	0.019240372
80	0xbd83f6b1	-0.06443537
81	0xbdcd0638	-0.10010952
82	0xbd0320bc	-0.03201364
83	0x3d196056	0.03744539

weight f4 [43, 84]
0	0x3d9e432c	0.07727656
1	0x3d842957	0.064531974
2	0x3dc0ab1d	0.09407637
3	0xbce05610	-0.027384788
4	0x3d01a48e	0.031651072
5	0xbcdb44ec	-0.026766263
6	0xbd8a82af	-0.06763207
7	0xbddb24e5	-0.107003964
8	0xbd8a6238	-0.06757015
9	0xbc89281c	-0.016742758
10	0xbcfed8a4	-0.031109162
11	0x3cbb557d	0.022867912
12	0xbcdb90e5	-0.02680249
13	0xbd1027c9	-0.035194192
14	0x3c94cff8	0.018165573
15	0xbdc5b299	-0.096532054
16	0x3dcac0df	0.099000685
17	0x3b948bf0	0.0045332834
18	0x3d8855e4	0.06657007
19	0xbd01abcb	-0.031657975
20	0x3d0465af	0.032323536
21	0x3ddb82ed	0.107183315
22	0xbdaca6fb	-0.084302865
23	0xbd9f6c9f	-0.0778439
24	0xbd8e4ce4	-0.069482595
25	0x3dcbd26d	0.09952245
26	0x3d3f2cbf	0.046673533
27	0xbd7191e8	-0.058977038
28	0x3d5e40d5	0.054261047
29	0x3d1ed8cc	0.038780972
30	0x3cb14a4b	0.021641871
31	0xbdae54e0	-0.08512282
32	0xbd51e7be	-0.051246397
33	0x3d31a715	0.043372232
34	0x3caeb162	0.021324817
35	0x3d1ce550	0.038304627
36	0x3c626295	0.013817449
37	0x3cb6e42e	0.022325601
38	0xbd897add	-0.067128874
39	0x3d259e46	0.040434144
40	0x3daa97e2	0.083297506
41	0x3d3b6762	0.04575289
42	0xbdb51f42	-0.088438526
43	0xbdba1523	-0.09086063
44	0xbdb5ca8b	-0.08876523
45	0xbd7b5317	-0.061358538
46	0x3da8621c	0.08221838
47	0x3c004d4c	0.007830929
48	0xbd9c1bec	-0.07622513
49	0xbdbe016f	-0.09277617
50	0xbdaaab09	-0.083334036
51	0x3b1335fb	0.0022462595
52	0xbd7d1b24	-0.06179346
53	0xbd5da3a5	-0.05411114
54	0x3d955030	0.07290685
55	0xbbed5ffc	-0.0072441082
56	0x3d88fec8	0.06689221
57	0xbc053fc8	-0.008132882
58	0xbd42c6ff	-0.04755306
59	0x3d5826d9	0.052771423
60	0x3db1d23d	0.08682678
61	0xbdd72eb7	-0.10506957
62	0xbd178933	-0.036996078
63	0xbc3e386b	-0.011610131
64	0xbdd98db5	-0.106227316
65	0x3d7e1d6c	0.062039778
66	0x3d7fccaf	0.06245106
67	0x3d947ff7	0.0725097
68	0x3d880b48	0.06642777
69	0xbd709bf2	-0.05874247
70	0xbdbf7370	-0.0934819
71	0x3dd18e9f	0.10232281
72	0x3d88dadd	0.0668237
73	0xbd2f63e9	-0.04281989
74	0xbd501317	-0.050799455
75	0xbd9981cd	-0.07495461
76	0xbd2ef6ee	-0.04271596
77	0xbd358c25	-0.044323105
78	0x3d9e9a2f	0.07744252
79	0x3d6dc938	0.058053225
80	0x3da46689	0.080273695
81	0xbdb5f678	-0.08884901
82	0xbda6c627	-0.08143263
83	0xbe0ef7cf	-0.13961719
84	0xbc1023ca	-0.008797595
85	0x3d89889e	0.06715511
86	0x3d334b51	0.043773
87	0xbd3540fe	-0.044251435
88	0xbca274e2	-0.019831125
89	0xbd818d48	-0.063257754
90	0x3cdb8077	0.026794655
91	0xbd3bb638	-0.045828074
92	0x3d6e34be	0.058155768
93	0x3dc148e3	0.0943773
94	0x3d8f9685	0.07011131
95	0xbbfd072c	-0.007721802
96	0x3d80ae6e	0.0628327
97	0x3df91d62	0.121638075
98	0xbd1d9cee	-0.038479738
99	0x3d627951	0.055291478
100	0x3d0c57e2	0.0342635
101	0x3d8b3079	0.06796355
102	0x3dd32d12	0.10311331
103	0xbd860c93	-0.06545367
104	0x3dd55a7b	0.104176484
105	0xbbac8329	-0.005264659
106	0x3ddf0d90	0.10891259
107	0x3d9741cc	0.07385597
108	0xbd0f092e	-0.034920864
109	0xbd7fa6fc	-0.062415108
110	0x3d2930de	0.04130637
111	0x3d99b480	0.07505131
112	0x3d05a6d5	0.032629807
113	0x3db37a34	0.08763543
114	0xbd22a092	-0.039703913
115	0x3d13c422	0.03607572
116	0x3cc43fd7	0.023956222
117	0x3c009604	0.0078482665
118	0xbcb044fe	-0.021517273
119	0xbd89f854	-0.06736818
120	0x3c128dd9	0.008944952
121	0xbdd80ae4	-0.10548952
122	0x3e13afa1	0.14422466
123	0x3dd7e6c7	0.10542064
124	0xbdb37146	-0.087618396
125	0x3cf9c134	0.030487634
126	0x3ddae329	0.106878586
127	0xbd1a9061	-0.037735347
128	0x3d26bee5	0.040709395
129	0xbdbeb846	-0.09312491
130	0xbc3fcd27	-0.011706627
131	0x3dd5964f	0.1042906
132	0xbd6bcaf0	-0.057566583
133	0xbceba358	-0.028764412
134	0x3ddda159	0.1082179
135	0xbd92c71f	-0.071668856
136	0x3dac3993	0.08409419
137	0xbdc01d95	-0.09380642
138	0x3dbb489d	0.09144709
139	0xbb86bdc6	-0.004111978
140	0x3db9967a	0.09061904
141	0x3d8651b5	0.06558553
142	0xbca72114	-0.020401515
143	0x3bb7d0e6	0.0056096194
144	0x3d005255	0.031328518
145	0x3d2486e6	0.04016771
146	0x3b0f5271	0.0021869207
147	0xbd1ddf43	-0.038542997
148	0x3c9a0ab2	0.018803928
149	0x3d863f78	0.065550745
150	0x3ddba377	0.10724538
151	0xbd92742a	-0.07151063
152	0x3dd79022	0.10525538
153	0xbd92fa64	-0.071766645
154	0xbd256c78	-0.040386647
155	0x3d738946	0.059457086
156	0x3dd98946	0.10621886
157	0x3dbfb82e	0.09361301
158	0xbc8110c1	-0.01575506
159	0xbd06e59c	-0.032933816
160	0x3d449388	0.04799226
161	0x3d89e395	0.06732861
162	0xbd88941c	-0.066688746
163	0xbd8d9add	-0.069143035
164	0x3cb38cf3	0.021917796
165	0xbd31a8b9	-0.043373797
166	0xbd6abef5	-0.057311017
167	0xbd9d261f	-0.07673287
168	0xbdaa1576	-0.083048746
169	0xbd28dbc2	-0.041225202
170	0xbd1c40bc	-0.038147673
171	0xbc8b00bc	-0.016968124
172	0xbd97dc44	-0.07415059
173	0xbda880cd	-0.08227692
174	0xbd9c1eb8	-0.07623047
175	0x3d9195f9	0.07108683
176	0xbce823dc	-0.028337412
177	0x3cafa541	0.021441104
178	0xbd9a8364	-0.07544592
179	0x3ca7195d	0.020397836
180	0xbdf5c735	-0.12000886
181	0x3dbf0e22	0.093288675
182	0x3c848c37	0.01618014
183	0xbdc4a207	-0.09601217
184	0x3d5c42bc	0.05377458
185	0x3bd38880	0.006455481
186	0xbd524e16	-0.051344
187	0x3db05ccc	0.086114496
188	0xbdc8ede4	-0.09810999
189	0x3bbda72d	0.005787751
190	0xbd90b3be	-0.07065533
191	0x3dd13306	0.1021481
192	0xbd07aa6a	-0.033121504
193	0xbd78b782	-0.06072188
194	0x3d5b1ba6	0.053493164
195	0xbde04a18	-0.10951632
196	0x3cfae33b	0.03062593
197	0x3dc66b95	0.096884884
198	0xbc107503	-0.00881696
199	0x3d87eac1	0.06636573
200	0xbbf59a19	-0.0074951765
201	0xbc08b6e1	-0.008344383
202	0xbd166fdd	-0.036727775
203	0xbe09ad09	-0.13444914
204	0x3cb5be4b	0.022185465
205	0xbdcbf6aa	-0.09959157
206	0x3d376d79	0.044782136
207	0x3d80b6a5	0.06284837
208	0x3b9a6044	0.004711183
209	0x3d9477ef	0.07249438
210	0x3db8119f	0.08987736
211	0x3d170eed	0.03687947
212	0x3d9063e1	0.070503004
213	0x3c3485e5	0.011018251
214	0x3cbbca3c	0.022923581
215	0xbd203fe7	-0.039123442
216	0x3d6b244a	0.057407655
217	0xbe0012b7	-0.12507139
218	0xbc9340c4	-0.017975219
219	0xbd29b23b	-0.04142974
220	0xbde90efc	-0.11379811
221	0x3dc1a82c	0.09455904
222	0x3d0fa7ad	0.035072017
223	0xbc8714b1	-0.016489359
224	0x3d707632	0.05870647
225	0xbd206080	-0.03915453
226	0xbdeee5f8	-0.11664957
227	0xbdae8a92	-0.08522524
228	0xbc6910b1	-0.014225171
229	0x3db1272b	0.08650049
230	0x3c5897ee	0.013219817
231	0x3d8f0da6	0.06985025
232	0xbd50f873	-0.05101819
233	0xbc1595a9	-0.00912992
234	0x3c7b3cc9	0.0153343165
235	0xbda3574f	-0.07975637
236	0xbd8fb835	-0.070175566
237	0xbc9fe176	-0.019516688
238	0x3d9f7c52	0.07787384
239	0x3d8ee6c9	0.069776125
240	0xbdacba58	-0.0843398
241	0x3d9b4a7c	0.07582566
242	0xbc7f33ff	-0.015576362
243	0xbc61e160	-0.013786644
244	0x3d5c7b46	0.0538285
245	0x3d2da52f	0.04239386
246	0xbc70ec19	-0.014704728
247	0xbd5d1efa	-0.05398462
248	0x3c811fdb	0.01576226
249	0xbcc8b2b2	-0.024499271
250	0xbc782d70	-0.015147552
251	0x3d22cbf5	0.03974529
252	0xbc4579f6	-0.012053004
253	0x3d8ec9b1	0.06972063
254	0xbd8c3392	-0.06845774
255	0xbdc3da43	-0.095631145

bias f4 [43]
0	0xbc0bda69	-0.00853596
1	0x3e557e51	0.20848967
2	0x3e509735	0.20370181
3	0x3d962e1b	0.07333013
4	0x3e27e49c	0.16395801
5	0x3e3bfb4e	0.18357584
6	0xbd1001ff	-0.035158154
7	0x3d002353	0.031283688
8	0x3de93f0c	0.11388978
9	0x3de11949	0.10991151
10	0x3e7eb13f	0.24872302
11	0x3d5e5d62	0.054288276
12	0x3d68fb0e	0.05688005
13	0xbdb648e6	-0.08900623
14	0xbdb35129	-0.087557144
15	0xbe0288fb	-0.12747566
16	0xbd708a56	-0.058725677
17	0xbe00c288	-0.12574208
18	0x3ca44593	0.020052707
19	0xbdd0ed9d	-0.10201571
20	0xbdb5a63a	-0.08869596
21	0xbd18bf30	-0.037291706
22	0xbe1c584d	-0.15268059
23	0x3d182705	0.037146587
24	0xbd224bee	-0.039623193
25	0xbd0f8f4f	-0.03504878
26	0xbd179146	-0.037003778
27	0xbd3a49d3	-0.04548056
28	0xbdb157fe	-0.08659361
29	0xbcd8c188	-0.02645947
30	0xbd9d24d8	-0.07673043
31	0x3daf8998	0.08571166
32	0xbddb5c69	-0.10710985
33	0x3c0bfba9	0.008543887
34	0xbdbe52e8	-0.09293157
35	0x3d8006f9	0.0625133
36	0xbdc959eb	-0.098316036
37	0xbd428624	-0.047491208
38	0x3e0b8941	0.13626577
39	0x3c973f74	0.018462874
40	0xbd33a6cd	-0.043860245
41	0x3d2d7370	0.042346418
42	0x3ca0f42e	0.019647684
