backend/gtsrb/bins/lzr_0.pth (torch, 588572 bytes, 10 tensors)

weight f4 [32, 3, 5, 5]
000000 9a ed de bd 7b fe ae bd f0 2c c9 3d eb 93 8d bd
       -0.10885163 -0.08544632 0.09823024 -0.06912979
000010 a8 e5 f1 3d c7 9b 7a bd 74 01 0b bd c1 b9 8e bc
       0.118113816 -0.061183717 -0.033936933 -0.017422559
000020 48 5b e8 3d 99 17 f5 3d 81 4d a1 3d 20 95 aa bd
       0.113455355 0.119673915 0.07876111 -0.083292246
000030 6f 5b e6 bd bf 88 d2 bd fa c1 5a bd b7 06 b1 bd
       -0.11247908 -0.102799885 -0.053407647 -0.08643859
000040 96 24 e9 3d 1b 61 37 3c b9 d7 e3 3c f7 c4 1e 3d
       0.11383931 0.011192585 0.027812826 0.03876206
000050 49 91 0e 3d 69 29 73 3c 09 cd 28 bd c9 55 ef 3d
       0.034806523 0.014841416 -0.04121116 0.11686284
000060 9c 1c ad bd 7b f7 84 3d 7e 08 1f bd da cf a4 3b
       -0.084527224 0.06492516 -0.03882646 0.0050296606
000070 72 ca c6 3d d2 c6 2d 3d c0 56 1f bc 7b 37 c8 bd
       0.09706582 0.042425938 -0.009725273 -0.09776207
000080 1f 5f c2 bd c6 3b c1 bd 4a 9d ca bd 7b 6c 8c bd
       -0.09490799 -0.09435229 -0.09893282 -0.068566285
000090 81 71 7b 3d 4f 8d c0 3d 59 ec b6 bc 82 c1 93 3d
       0.061387543 0.094019525 -0.022329496 0.07214643
0000a0 94 01 ee bd ec 70 a0 3d 0a e5 b1 3d a8 97 6d bd
       -0.11621395 0.07834038 0.08686264 -0.05800596
0000b0 55 be b6 bd bd de 82 3d 1a 33 87 3d eb 02 44 3d
       -0.08923022 0.0639014 0.06601544 0.047854345
0000c0 ff 32 bc 3d bf 3d 97 bd b2 25 e7 bd 42 64 82 3d
       0.09189414 -0.07384824 -0.11286487 0.06366779
0000d0 48 97 b0 3d c7 7b dc 3b b5 81 03 bd 8b 36 96 bd
       0.086226046 0.0067286226 -0.03210612 -0.07334622
0000e0 22 58 e5 ba d3 a1 e0 bc cb 72 f9 3c 5e 68 be 3d
       -0.0017497579 -0.027420914 0.030450245 0.0929725
0000f0 9d 9e 15 bd ed b3 c1 3d b4 de 08 bc e1 64 d3 bd
       -0.03652822 0.09458146 -0.008353878 -0.103219755
000100 57 4b 72 3d 95 2b d8 bd ac 65 13 3d 37 d7 0b bd
       0.05915388 -0.105551876 0.035985634 -0.03414079
000110 90 02 a7 3d 82 f5 25 bd 9e 41 d8 bd 0f de c3 bd
       0.08154786 -0.040517338 -0.105593905 -0.09563839
000120 4a 7f 9f 3b 6a bd 8b 3d 70 25 c3 3d c5 f9 eb bd
       0.004867469 0.06823237 0.09528625 -0.11522249
000130 e0 26 b3 3d 9d 2c a8 3d 4f 83 83 3d f3 70 f2 bc
       0.08747649 0.08211634 0.064215295 -0.029594874
000140 86 60 0e 3b 84 eb bb 3d cd 80 be bd 87 69 91 bd
       0.0021725013 0.091757804 -0.093019105 -0.07100206
000150 9d 03 bb bd b1 ae 41 bd 99 50 7a bc 3e ca e0 3a
       -0.091315486 -0.04728574 -0.015278005 0.0017150117
000160 e0 18 1d bd 04 3c a7 3b 69 57 de 3d bc bd 6b 3d
       -0.0383538 0.00510359 0.10856516 0.05755399
000170 ba 26 e9 3d 32 80 b6 bc a4 7e 0c 3d ad e6 42 3d
       0.1138434 -0.022277925 0.03430046 0.04758327
000180 0e dc a3 bd f7 80 bc bd 6a 5f c3 3d 39 65 dd 3d
       -0.080009565 -0.092042856 0.09539683 0.10810322
000190 08 bb e8 3b 0f ee 48 3d 5d 77 81 3d c2 61 ac 3b
       0.007102374 0.049055155 0.06321595 0.005260677
0001a0 5d 26 57 3c a2 96 db 3d 57 c7 c0 3d b0 2d 97 bd
       0.013131705 0.1072209 0.09413021 -0.07381761
0001b0 5d 9e cf bd 8f cd 91 bd e3 0c ae bd 9d 72 6d 3c
       -0.10137627 -0.07119285 -0.08498552 0.014492658
0001c0 45 e5 06 3d a6 01 8f bd 6a 4e e9 bc 66 bf d1 3c
       0.032933492 -0.06982736 -0.028479774 0.025603961
0001d0 f6 eb 9f 3d 2e b9 95 bd b2 61 c7 3c 6a 12 3e 3d
       0.07808678 -0.07310711 0.024338577 0.04640428
0001e0 d9 b9 ab bd f8 6a 84 3d 63 2e b3 bd 3e dc 92 bc
       -0.08385057 0.06465715 -0.08749082 -0.017927285
0001f0 00 89 79 bc d6 3d 29 bd e4 30 8f bd 72 33 26 bd
       -0.015230417 -0.041318737 -0.06991747 -0.040576406
000200 86 51 57 3b 65 80 d1 bd 85 08 c2 3c c1 b5 00 3d
       0.0032854988 -0.102295674 0.023685703 0.031423334
000210 90 de e6 3d fc 87 7a 3d 02 1d af 3c 63 11 a6 3d
       0.11272919 0.06116484 0.021376137 0.08108785
000220 c9 8f 92 bd 12 18 48 3d 5d 13 e1 3d d0 47 15 bd
       -0.07156331 0.04885108 0.109900214 -0.03644544
000230 4e 91 34 3c 1d 7d 86 3d fd c2 4c bc e9 28 af 3d
       0.011020971 0.06566832 -0.012497661 0.08552725
000240 b3 39 a4 bd 13 8d 75 bd 84 45 fa bc 65 2d 34 3d
       -0.08018818 -0.059948992 -0.030550726 0.043988604
000250 91 f1 c6 bd c1 d0 22 3d 9e 3e 06 bd 27 0b d5 bd
       -0.09714044 0.039749864 -0.03277456 -0.10402518
000260 fc 0d b3 3d 28 af 4a bc d7 4f d4 bd 21 68 5e 3d
       0.08742902 -0.012370862 -0.10366791 0.054298524
000270 74 99 3b 3d d7 9a b3 3d cc 8d bb bd 90 85 e0 3d
       0.04580064 0.08769768 -0.09157905 0.10962975
000280 4c 0e d0 3d 8c b7 c6 bd 66 b3 5b bd 31 fe 03 bd
       0.10158977 -0.097029775 -0.053637885 -0.032224838
000290 35 ad 51 3d a9 3d 36 3d 63 7a 26 bc 86 3d 67 bd
       0.051190574 0.044492397 -0.010161015 -0.056455158
0002a0 05 44 d9 bd f6 48 16 3c be 0d 07 3d 29 86 d6 3d
       -0.10608677 0.009172669 0.03297209 0.10474808
0002b0 0c 03 77 3c 4d 62 d6 bc 76 c4 ce bd 79 af f2 bd
       0.01507641 -0.02616992 -0.10096066 -0.11849875
0002c0 ad 31 b0 bd f7 13 ad 3d 63 9c e4 bd 05 3d df ba
       -0.08603225 0.084510736 -0.11162641 -0.0017031735
0002d0 60 bf e7 3c 85 b3 d2 3d 81 f5 d0 bc 43 c7 1d bc
       0.028289497 0.10288147 -0.02550769 -0.009630027
0002e0 e4 0c af bc a2 3e a2 3d 7e a1 9d 3d 99 85 ad bd
       -0.021368451 0.079221025 0.07696818 -0.08472747
0002f0 aa 37 a0 bd f7 a8 20 3d 77 6e c9 3d 65 39 26 3d
       -0.07823117 0.039223637 0.098355226 0.04058208
000300 e5 81 df 3a 58 65 82 3d fe 43 3c bc fe 72 19 3d
       0.0017052261 0.06366986 -0.01149082 0.03746318
000310 f2 3a 47 3d 5c c5 91 bd 50 7e 95 bd 08 ca bd 3d
       0.0486402 -0.071177214 -0.07299483 0.0926705
000320 c6 a6 20 bd 02 d0 e8 3d d3 29 e2 3d 10 55 83 3d
       -0.039221548 0.11367799 0.110431336 0.06412709
000330 a4 14 77 3c e2 e8 c7 3d 5e cb a6 3c 08 8e dd bc
       0.015080605 0.09761216 0.020360645 -0.027045265
000340 7c 2b 56 3c ef 53 15 bd a1 65 86 bd 34 15 7e 3d
       0.013071891 -0.036457 -0.06562353 0.06203194
000350 72 d8 09 3d c7 f4 a6 3d f2 77 95 bc ae db c8 bc
       0.033653684 0.08152156 -0.018245671 -0.024518814
000360 32 44 b4 3d a4 26 52 3d 08 8c de 3d 36 b5 53 bd
       0.0880207 0.05130638 0.108665526 -0.051686488
000370 90 9e ed 3c 3f b7 23 bb 2d 7c 74 3c 30 7e 89 3d
       0.029006273 -0.002498105 0.014922184 0.067135215
000380 4f 5a 73 bd 23 ee 4a 3d 02 fd 42 3d 51 4d 83 bd
       -0.059412297 0.04954351 0.04760457 -0.06411231
000390 15 53 4b 3c b3 2d bc 3c e0 6a 3d 3d 7d 0f d7 bd
       0.012409945 0.02297101 0.046244502 -0.10501001
0003a0 1f 38 ce bc ea 43 cd 3b 9d ac 68 bd f3 c6 ba 3d
       -0.025173245 0.0062641995 -0.05680524 0.09119978
0003b0 cd 64 ca 3d 06 17 6c bc a1 8a ef 3d c3 40 88 3d
       0.098825075 -0.014409786 0.11696363 0.06652977
0003c0 91 96 7d 3c 6d 03 7e bd 31 b4 5c bd ba ce 64 3d
       0.015477792 -0.062014986 -0.05388278 0.055861212
0003d0 65 96 fc 3d 0a d9 b2 bd 7c 98 7a bd 57 d3 aa 3d
       0.12333373 -0.08732803 -0.061180577 0.08341091
0003e0 1e 52 4c bd ae 19 c1 3c a8 6a c3 3d e2 d0 a0 bd
       -0.049883 0.023571815 0.095418274 -0.07852341
0003f0 59 bf ea bd 08 17 5f 3c 87 fd 78 3d b4 10 56 bc
       -0.11462278 0.013616331 0.060788658 -0.013065506

bias f4 [32]
000000 0e b6 9d 3d 52 13 62 3d fc 3b f6 bb 23 e8 f1 bd
       0.0770074 0.055194207 -0.007514475 -0.11811855
000010 af 4d 22 be 28 42 5d 3d 84 d4 3a be c4 08 a7 bd
       -0.15849946 0.05401817 -0.18245131 -0.08155969
000020 8a 86 d3 3c 8c f0 fb bd 08 74 84 3d f5 7e 9d 3d
       0.02582099 -0.1230174 0.06467444 0.07690231
000030 28 ab bc 3c 71 0b 0e 3e b4 fe a3 3d 71 6f be bc
       0.023030832 0.13871552 0.08007565 -0.023246499
000040 00 a1 2b 3d 43 08 37 bc eb a1 10 bd 63 1c b5 bd
       0.04190159 -0.011171403 -0.035310667 -0.08843305
000050 96 55 2a bc f7 33 15 be 4f c9 03 be 0c ad 9c 3d
       -0.010396382 -0.14570604 -0.12869762 0.076501936
000060 df 73 cb bd d5 81 39 3e 7a c8 ea 3c c0 64 80 bd
       -0.0993421 0.18115933 0.028660048 -0.062692165
000070 46 a5 d5 3c 43 88 0a be a5 66 70 bd 06 42 7f 3c
       0.026079785 -0.13528542 -0.05869164 0.015579706

weight f4 [32, 32, 5, 5]
000000 ec 14 4a 3c ef 83 e9 3c 08 19 fd bc aa 1f ed 3b
       0.01233409 0.028505294 -0.030895725 0.0072364407
000010 ee c0 89 3c b2 fe d4 3c 2c d6 11 3d 5d cf 08 3d
       0.016815629 0.026000354 0.03560464 0.033400882
000020 8e d4 17 bd 16 e7 d9 3c 7c 67 7a bc c2 7d ad 3a
       -0.037067942 0.026599448 -0.015283462 0.0013236331
000030 74 34 41 bb 60 80 00 3b 8c 58 76 3c 14 15 56 bc
       -0.0029480727 0.0019607767 0.01503576 -0.013066549
000040 4c e9 27 3c 6b 9f a6 bc 95 3c 04 bd 70 d8 fb ba
       0.010248493 -0.020339688 -0.032284338 -0.0019214284
000050 19 a6 27 3c c3 6c bb bc 26 84 9f bb 3a f1 09 bd
       0.010232472 -0.02287901 -0.0048680482 -0.033677317
000060 f9 a4 dc bc 50 5c 5a bc d1 af db bc e7 de 0a bc
       -0.026934134 -0.013327673 -0.026817234 -0.008475996
000070 be 9f 95 3c 54 a3 f1 bc e4 3f bb bb cf 2f b6 3c
       0.018264648 -0.029496826 -0.0057144035 0.022239594
000080 12 ba be bc 90 0f 25 bb b5 bc de bc 2d 06 89 3c
       -0.023282085 -0.0025186278 -0.027189592 0.016726578
000090 18 2e 84 bc a0 fc f1 3b 5c d0 77 3c e4 88 26 bc
       -0.01613526 0.0073848516 0.01512536 -0.010164473
0000a0 e2 59 a3 3c 1a d9 e5 bb bc 6d 54 3b 13 f4 f5 bc
       0.01994032 -0.007014406 0.003241404 -0.03002361
0000b0 76 c5 d1 bb 7d c7 3c 3c ce 70 5f bc fa 5d e6 bc
       -0.006401713 0.011522171 -0.013637735 -0.028120983
0000c0 22 9c d3 3c 06 7e c9 3c 70 51 2c bc 70 2c cb 3c
       0.025831286 0.024596225 -0.010517463 0.024801463
0000d0 8c cd d3 bc cd 1d 92 bc 4e 69 24 3d ee de 05 bc
       -0.025854848 -0.017836476 0.04013949 -0.008170826
0000e0 17 08 79 3b 49 ef 34 3c 5b 4f e7 3c 4e 74 5e 3c
       0.0037999207 0.011043378 0.028236082 0.013577534
0000f0 02 51 fe 39 2f 96 79 3b 2e 63 d1 3c bd 64 0c bb
       0.0004850701 0.00380839 0.025559988 -0.002142235
000100 f8 47 a5 bc fd 86 ac bb 95 38 34 bc 49 15 04 3d
       -0.020175919 -0.0052651153 -0.010999818 0.03224686
000110 4a 5e 21 bc 2f 2e 6c 3b 41 30 2e bd ef 61 23 3c
       -0.00984914 0.003603827 -0.042526487 0.00997208
000120 d5 9e 94 bb 5b ca c2 3c 7f 62 a0 3b 79 9c 19 bc
       -0.004535536 0.023778131 0.004894554 -0.009375685
000130 00 fe 40 3c 93 cf 03 3d 77 0e 0e 3d d9 6b 6e bc
       0.011779308 0.03218038 0.034681763 -0.01455208
000140 e3 ae e9 3c 1c f9 11 3d 6f 01 28 bc 41 7c 9e 3c
       0.028525775 0.03563796 -0.010254248 0.019346358
000150 0c 1a fe 3b 5b 18 ac bc 68 0b 8e 3c 35 5c 1b bc
       0.00775457 -0.021007707 0.017339423 -0.009482433
000160 6c 0f de 3b b7 c0 24 3c 3f 1f 98 3c 0c e9 21 3d
       0.006776741 0.010055712 0.018569587 0.03952889
000170 59 ab 2b 3d 8d d4 fd 3c aa cf 67 bc 59 35 1f bc
       0.041911457 0.030985141 -0.014148632 -0.009717309
000180 21 fd ec bb 94 1b ec 3c 4e 48 5f bc 6f 62 51 3b
       -0.0072323238 0.028821744 -0.013628079 0.003194954
000190 f7 6a bf bc f9 45 a7 3c 19 50 31 bd de 73 12 bd
       -0.023366434 0.020419108 -0.043289278 -0.03575503
0001a0 15 04 8f bc 4a 5f e7 3c f0 a6 0a bd 76 91 a0 3a
       -0.017458001 0.02824368 -0.03385061 0.0012250382
0001b0 fe ae 59 3b 1c 84 23 3c fc 4f bb bc 7a 8d 90 bc
       0.0033215876 0.009980228 -0.022865288 -0.017645586
0001c0 1d 0a 28 bc bc 2a 3d 3b 39 1b e1 bc 40 73 bd 3c
       -0.010256317 0.0028864583 -0.027478801 0.023126245
0001d0 da 06 8c bc 01 12 85 bc 23 bc b8 bc 07 38 9f bc
       -0.01709311 -0.016243936 -0.022550648 -0.019435896
0001e0 04 e4 12 3d 49 24 ef bc b9 8b 7b bc 9c 00 a3 3c
       0.035861984 -0.029192107 -0.015353137 0.019897752
0001f0 c0 2c c7 bc 9c 70 d6 3c 23 57 b5 3c 1a 7a 45 bc
       -0.02431333 0.026176743 0.022136277 -0.012053037
000200 f4 f4 f9 bb dc 68 3e bc 03 e0 9b bc 43 cc da 3b
       -0.0076280776 -0.01162168 -0.019027716 0.006677182
000210 80 28 c1 ba e7 0a f6 3c 15 39 ef 3c 57 72 c0 bc
       -0.0014736801 0.030034496 0.029202024 -0.023492021
000220 3e bb ea 3c 02 d2 fe 3c dc fc b9 3c da 74 7a 3c
       0.028653737 0.031105999 0.02270358 0.015286649
000230 2f 1d a5 3b bf 78 00 bd 2d 79 cc 3b a0 66 54 b9
       0.0050388793 -0.031365152 0.006240031 -0.00020256126
000240 c7 93 be bc c6 95 64 3c 0a 59 1f 3c 5c aa ee bb
       -0.023263825 0.013951724 0.009725818 -0.007283492
000250 62 7f b9 bc 9a 1a ac 3c 83 99 ad bc 20 48 bd bc
       -0.022643749 0.021008778 -0.021191364 -0.023105681
000260 7c 52 36 3c 53 cb 22 bb 75 9c 52 3c 82 27 d7 bc
       0.011128064 -0.002484043 0.012854685 -0.026263956
000270 6d 6e 90 bc c2 69 e8 3c fa fe 35 3c 0b 15 1d 3d
       -0.01763078 0.028370742 0.011108154 0.038350146
000280 c0 d3 ac bc a2 6e ac bc f7 b9 03 3d 7c 40 c0 3c
       -0.021097064 -0.021048848 0.03215977 0.023468249
000290 bc 6e 0f 3b 42 84 e4 ba 9f 7c dc 3c 27 a5 b3 3c
       0.0021886071 -0.0017434435 0.026914893 0.021929337
0002a0 0c 0b 88 bc d5 0d 69 3c f8 d8 26 bd 5c 47 a4 bb
       -0.01660683 0.014224489 -0.04073426 -0.0050133895
0002b0 38 d3 1d bc af 58 e3 bc 70 5a b3 3c 4a 12 85 3b
       -0.009632878 -0.027752249 0.02189371 0.004061018
0002c0 12 39 af bc 64 a1 e2 3c be c7 d0 bc f4 32 7e bc
       -0.021389518 0.027664848 -0.02548587 -0.015515078
0002d0 2a 93 c0 bb 60 c7 51 3c 93 af f5 3c 5e d7 08 bd
       -0.0058769183 0.012803882 0.029990947 -0.033408515
0002e0 75 fc ac bc 3a 0d 05 3d 08 6f 1f 3d dc f6 c9 bc
       -0.021116475 0.032483317 0.038924247 -0.024653845
0002f0 3b 48 33 bb 22 e8 12 3c 1b a2 14 3d e1 62 9a bc
       -0.0027356285 0.008966478 0.03628741 -0.018845977
000300 06 ba a7 3b 0a b2 c7 3c cc c3 21 3c 06 1f 08 3d
       0.0051186113 0.024376888 0.009873342 0.03323271
000310 30 4d 51 3c 52 9b 18 3c 42 89 aa 3c d1 17 0e 3d
       0.012774751 0.009314375 0.020817403 0.03469068
000320 59 33 93 3a 19 07 07 bb b8 ee 09 bc fc 2d ef 3c
       0.0011230513 -0.0020603596 -0.008418731 0.029196732
000330 9b 64 81 bc e3 72 b1 3c ea ac f3 bc 28 44 e7 3c
       -0.015795043 0.021661228 -0.029745538 0.028230742
000340 0e ae 25 bc 1c cd ff 3c d8 20 bb bc 22 95 a2 bc
       -0.010112299 0.031225733 -0.02284281 -0.019846503
000350 93 25 31 3d c5 02 1b 3d e7 5a bf bc 9e e0 cb bc
       0.043248724 0.037844438 -0.023358775 -0.02488738
000360 85 72 20 bc 4f ce 4e 3c 55 e0 b4 3c 30 04 a3 bb
       -0.009792929 0.01262243 0.022079626 -0.0049748644
000370 fa d8 8b bc 9d 7d ef bb 5c 5e 6a ba 4c ca 91 bc
       -0.017071236 -0.0073086754 -0.0008940452 -0.017796658
000380 c3 a7 01 3c fb 98 bc bc 9a 58 cd 3c 02 12 f9 bc
       0.007913533 -0.023022166 0.025066663 -0.030404095
000390 91 17 12 bc fe 2a db bb 0e 47 03 bd 2e 22 e8 bc
       -0.0089167515 -0.0066884747 -0.032050185 -0.02833661
0003a0 4b 90 f1 bc a2 3e 9b 3b 8b aa bd 3c 01 88 cc 3c
       -0.02948775 0.004737691 0.02315261 0.024967195
0003b0 aa 5c 00 bc ca ab f3 bc 9b 9c 06 bd 76 61 47 3b
       -0.007834593 -0.029745001 -0.032864194 0.0030423081
0003c0 f9 dc 12 bd cb cf cf bb 6b d8 94 bc 41 a0 b0 3c
       -0.035855267 -0.0063419095 -0.018169602 0.02156079
0003d0 fe b1 9b bc c9 b6 5f 3c 98 b1 27 3c 57 1c 0f bb
       -0.019005772 0.013654419 0.010235213 -0.002183696
0003e0 84 51 9d bc 6f 76 6b bc 3a 20 92 bc e3 e9 5d 3c
       -0.019203909 -0.0143714985 -0.017837632 0.0135445325
0003f0 6e 4c d9 3c 87 ef 54 bc 43 30 a7 3b ba 98 8a bc
       0.026525702 -0.012996561 0.005102189 -0.016918529

bias f4 [32]
000000 95 75 c5 3c b9 ac 65 bd bf 92 0f bc 0e 73 46 3c
       0.024103919 -0.056072924 -0.008763014 0.012112392
000010 45 70 1e 3b fb bc 88 bd 8a 81 dd 3c 6e 5e c9 3c
       0.0024175805 -0.0667667 0.027039308 0.02458116
000020 d8 d2 e4 3c 63 fd fd bb 58 8b 0a bc 8b 22 2a 3c
       0.02793257 -0.0077511533 -0.008456074 0.010384212
000030 f3 a2 3a bd 1d 38 e9 bb 22 4a 8f bd 5c 3a 75 bc
       -0.045565557 -0.007117285 -0.069965616 -0.014967527
000040 23 51 08 bc 14 cb 28 bd 7e ef d3 3c 1f 60 46 3d
       -0.008320126 -0.041209295 0.025871035 0.048431512
000050 69 ed 7b bd 7a 76 81 bb 50 02 86 bc ff 39 c8 3c
       -0.06150571 -0.003950891 -0.016358525 0.024441717
000060 5c 61 8d 3c 14 d4 14 3c 8e df 0d bd 31 b0 ce bc
       0.017258339 0.0090837665 -0.034637026 -0.025230499
000070 c7 38 6a bb 34 6d 2b bd c6 ff e6 3c 60 4a 04 3d
       -0.0035739408 -0.04185219 0.028198134 0.032297492

weight f4 [64, 32, 5, 5]
000000 11 a7 a4 ba 7b cb 1d bd 62 6f 4a 3c 80 b3 a5 bc
       -0.0012561997 -0.038524132 0.012355657 -0.020227194
000010 2c b1 4c bb f2 e2 29 bd 97 5f 66 bb be 47 cf 3c
       -0.0031233532 -0.041476198 -0.003515219 0.025302764
000020 3b 20 be 3c 2a 37 72 ba 3f 38 f9 3b a5 11 15 bc
       0.023208728 -0.00092397875 0.007605582 -0.009098445
000030 73 ec 92 bc c6 72 f7 3c 6d a1 3e 3c 66 96 72 bb
       -0.017935013 0.030206095 0.011635167 -0.0037015914
000040 86 82 f6 bc 0f a0 91 bc 8f 16 ec 3c d4 1c d6 ba
       -0.030091535 -0.017776517 0.02881935 -0.0016335496
000050 d3 e8 de ba 32 75 93 3c a4 4b fb 3c b5 0f 0d 3d
       -0.0017006643 0.018000219 0.030675717 0.034438808
000060 87 23 ec bc 81 4b 56 3c eb bd e1 ba 39 bd 0e 3d
       -0.028825535 0.013079525 -0.0017222738 0.034848426
000070 2f 36 2b 3c 8f 66 3b bc d5 d6 7b bc a6 38 05 3d
       0.01044993 -0.011438026 -0.015371044 0.032524727
000080 d8 c7 f9 3c e5 75 e6 3c 2f ec f0 3b c2 f4 01 3d
       0.0304908 0.028132388 0.007352374 0.03172756
000090 59 c4 e9 3c 26 ca 92 bb f5 e7 e2 bc 86 78 b5 3c
       0.028536009 -0.0044796644 -0.027698496 0.022152197
0000a0 f8 ce 0a bd 3c a0 b1 3b 6c e8 7f 3c 55 30 9c bc
       -0.033888787 0.0054207128 0.015619379 -0.019066015
0000b0 ac b9 c4 3c bf e1 ee bc 17 f5 10 bc 2d 9a 00 3d
       0.024014316 -0.029160379 -0.0088474965 0.031397033
0000c0 15 83 bc 3c 40 9e a4 3c 27 a1 be 3b 3f 8b f6 bc
       0.023011724 0.02009499 0.0058175507 -0.030095695
0000d0 3c d1 f4 bc 03 86 4b 3c f7 d5 9d bb cd 70 48 3c
       -0.029884927 0.012422088 -0.0048167664 0.012233925
0000e0 cb 46 c8 3b 1d b6 47 bc e4 ec 20 3c fa 8f 2e bb
       0.006111955 -0.012189415 0.009822104 -0.002663611
0000f0 20 28 88 bc 47 b8 a1 3c 17 b7 9c bc ae 13 d8 3a
       -0.016620696 0.01974119 -0.019130273 0.0016485357
000100 a4 b5 ea bb 3f ba 25 bb 1e 8f 65 bc 1d d3 50 bb
       -0.0071627665 -0.0025288013 -0.014011173 -0.0031864115
000110 cf 8e 23 bc d7 3b b5 3c 9f 70 81 bc 47 1e 0b 3d
       -0.009982779 0.02212326 -0.015800772 0.03396442
000120 49 eb 29 3c e0 3e c4 3b cd fa e4 3c 6d 9c 09 bd
       0.010371038 0.0059889406 0.027951622 -0.033596445
000130 a5 aa a8 bc 35 25 ce 3c 5c e8 09 bc fc 20 c8 3b
       -0.020589182 0.025164226 -0.008417215 0.0061074477
000140 74 6c 4d 3b 2e 20 98 ba f6 1d 1b 3c d4 6f e4 bc
       0.003134516 -0.001160627 0.009467592 -0.027885355
000150 4f ce 4f bc c8 44 f9 bc 1a 64 20 39 5b 27 c1 bc
       -0.012683465 -0.030428305 0.0001529608 -0.023578336
000160 98 18 04 3d 5b f5 21 3c 14 fb f8 3c c4 85 48 3c
       0.032250017 0.009885157 0.03039316 0.012238923
000170 db 74 02 bd ed 17 08 bd ec 12 d2 bc e3 3b 15 3a
       -0.031849723 -0.033225942 -0.025643788 0.0005692823
000180 cc 83 ee bc b9 0b dc 3c 70 7f 9f 3c 8d be 00 3d
       -0.02911558 0.026861059 0.019469947 0.031431723
000190 1f 42 25 3c 6b 6f d4 3c 1b fb cd bc fb 23 b7 3b
       0.010086565 0.025932034 -0.02514415 0.005589006
0001a0 cf 66 87 bc 2c e1 7c bc 48 91 12 bc 25 1f fb 3c
       -0.016528515 -0.0154345445 -0.008945771 0.0306545
0001b0 a5 c8 89 bc d0 f6 45 3c ac 69 01 bd 3f 42 8f 3c
       -0.016819308 0.0120827705 -0.031594917 0.017487643
0001c0 c9 32 15 3d 00 1d 1e bc 02 8f 04 bd c9 cb 0c bd
       0.036425386 -0.009650469 -0.032362945 -0.034374032
0001d0 30 ac 7a bb ae 75 05 3d 94 8e f1 bc 19 93 52 bb
       -0.0038249604 0.03258293 -0.029486932 -0.0032131134
0001e0 14 80 b7 3c 8d 45 ce 3c ac 58 9c 3c 17 3a 00 bd
       0.02239994 0.025179649 0.01908525 -0.0313054
0001f0 da 63 a2 bc 43 bf 54 bc 5b 58 9e bc 7d 43 e9 3c
       -0.019823004 -0.0129850535 -0.01932924 0.028474564
000200 7b 5e ec bb 55 23 47 bc 85 10 78 3b a2 26 db bc
       -0.0072134114 -0.01215442 0.0037851643 -0.02675182
000210 62 d3 8a 3c 30 cc 06 3d 61 a7 94 bc f4 8b 71 3c
       0.016946498 0.032909572 -0.018146219 0.01474284
000220 72 cc 76 3b af 3c 9b 3b 5e cd d1 bc 10 08 d5 bc
       0.003765848 0.0047374587 -0.025610622 -0.026004821
000230 cb 79 2c 3c fd cd e5 3c 03 d4 12 3d 30 13 c4 3c
       0.010527085 0.028052324 0.03584672 0.02393493
000240 bb 99 95 bc ec 6b f3 bb 36 7b 09 3d 21 64 9d 3b
       -0.018261781 -0.007428637 0.03356477 0.004803196
000250 f0 c1 00 bb 8b 63 a8 bb 99 93 cb 3c d8 07 c4 3c
       -0.0019646846 -0.0051388196 0.024850653 0.023929521
000260 4c d2 f1 3c 58 dd c5 bc 7f 34 04 bd 7f 11 17 bc
       0.029519223 -0.024153396 -0.032276627 -0.00922048
000270 03 fc f1 3c 50 d5 cd bc 7a a4 fd ba db 55 09 bd
       0.029539114 -0.02512613 -0.0019351386 -0.033529144
000280 a6 13 a3 3c 26 09 72 bc 32 3c fa bb 49 fc fd bc
       0.01990683 -0.014772689 -0.0076365704 -0.031004088
000290 b7 b5 95 3b 57 32 80 bc 87 ce 0a 3c 34 39 c2 3c
       0.0045687812 -0.015649004 0.0084720915 0.023708917
0002a0 af b1 fc bc bb 23 e0 bc 38 6e 06 3d 2c ce d1 bc
       -0.030846445 -0.027360788 0.032819957 -0.025611006
0002b0 27 d0 b2 bc cc 35 69 3c 1c 32 6d bc 1d b1 98 bc
       -0.02182777 0.014234018 -0.014477279 -0.018639142
0002c0 81 a1 79 3c 1a f4 59 3c ae 2b 11 3d 58 a8 69 3c
       0.015236259 0.013302827 0.035442047 0.014261328
0002d0 a0 81 e2 bb 82 13 0a 3d 78 11 21 bc 7a 7d c0 bb
       -0.006912425 0.03371001 -0.009830825 -0.005874333
0002e0 95 b0 ba 3c 18 ae c9 bc 65 ab e4 3a 88 5a d1 bc
       0.022789279 -0.024619147 0.0017446099 -0.025555864
0002f0 aa 9b 0e bb 49 05 94 3c 30 b4 1b 3d 6d 6e d3 3c
       -0.0021760263 0.018068926 0.038013637 0.025809491
000300 fa 54 f0 bc 01 3d d5 bc 26 c7 56 bc 36 70 d0 bc
       -0.029337395 -0.026030065 -0.013109004 -0.025444131
000310 fb 33 ff bc 7c 77 92 3b 11 f2 86 bc 83 d6 b8 bb
       -0.031152716 0.00446981 -0.016472848 -0.005640806
000320 88 fe 8b bc 9b a2 ea bc 0a 84 9b 3b 53 24 29 3c
       -0.017089143 -0.02864199 0.004745965 0.010323602
000330 4d 3c e6 bc 6e bd 8c ba 84 a8 a6 3c cd 7c 02 3d
       -0.028104926 -0.0010737607 0.020344026 0.0318573
000340 85 ed 26 3b 30 e9 c2 bc 8f 96 b7 bc 87 48 b9 3c
       0.0025471163 -0.023792833 -0.02241066 0.022617592
000350 e5 75 c1 bc b8 78 eb bc 35 b4 3c 3c f5 7b 64 3c
       -0.023615787 -0.028744087 0.011517574 0.013945569
000360 ff 22 08 3d b3 00 f6 3c f4 67 83 bc a6 48 ee 3b
       0.0332365 0.03002963 -0.01604078 0.007271844
000370 34 f9 bd 3c 41 fe a3 3a 69 16 d4 3c fb 32 4b bb
       0.023190118 0.0012511687 0.025889592 -0.0031005729
000380 17 ab 8e 3c 16 1d b2 3c ed 0e f7 bb 35 42 0f 3c
       0.017415566 0.021742385 -0.007539621 0.008743812
000390 74 d0 6e bc ef 7d d1 3c 2c b1 bd bb 4e 5a a1 bc
       -0.014576066 0.025572745 -0.005788943 -0.019696381
0003a0 bb 7f 8e 3c f0 91 8d bc 1e 56 13 3d df 89 1c bc
       0.017394891 -0.017281502 0.0359708 -0.009554355
0003b0 a4 a0 5a 3c d6 53 cf 3c 45 ea e6 3c 50 18 e4 3c
       0.013343964 0.02530853 0.02818788 0.027843624
0003c0 29 2b c6 3c 70 2d 18 3c 14 2b 0c 3d 86 5f 10 bc
       0.024190502 0.009288177 0.03422077 -0.008811837
0003d0 1a 72 e9 bc cd 7d f4 3c 31 5a 56 3b ec 50 85 38
       -0.02849679 0.029845143 0.0032707567 6.357007e-05
0003e0 ee 2c bb 3c 50 ea 01 3d a4 b8 f3 bc 4d 71 bc bc
       0.022848573 0.0317176 -0.02975113 -0.023003245
0003f0 f4 d9 cd bc 4d 57 b8 3c c1 7b 94 3b 44 f1 94 bc
       -0.025128342 0.022502566 0.004531354 -0.01818145

bias f4 [64]
000000 8f 3f 31 bd 47 d8 af bc 80 31 24 bc a5 c7 57 bd
       -0.043273505 -0.021465434 -0.010021567 -0.05268063
000010 cf a5 8a 3c 15 26 b9 bc bd 5d df bc 76 81 41 bd
       0.016924767 -0.022601167 -0.027266378 -0.047242604
000020 a7 9a b1 3c 44 f5 9f bc 1e b0 de bc 2b 3f 02 bd
       0.02168019 -0.019526131 -0.027183589 -0.031798523
000030 7c d3 af 3a d5 2c 03 bd cd 93 40 3c c6 71 3a bc
       0.0013414468 -0.032025177 0.011753988 -0.011379665
000040 6c 03 39 bc 52 62 33 bd de af 8b bc 31 3a 01 bc
       -0.01129232 -0.043794937 -0.017051633 -0.007887409
000050 e1 d4 af 3c 4a 9f 3e 3c a8 b4 12 3d ab b7 cc 3c
       0.021463813 0.011634657 0.03581682 0.024989923
000060 88 11 60 bd 61 69 c3 bc 5b 63 49 3c 3e d4 11 3d
       -0.05470422 -0.02385396 0.012291755 0.0356028
000070 3b 67 c1 3c 85 92 33 bd 70 01 d8 3c 87 96 d7 3c
       0.023608794 -0.043840904 0.026367873 0.026316894
000080 1e 42 12 bd ff 37 db bc 51 84 5f bc 39 01 59 bd
       -0.035707586 -0.0267601 -0.0136423865 -0.05297968
000090 6b de 66 3c 7b 9a e0 3c 6b de 1a 3d 65 cc f1 3a
       0.0140911145 0.027417412 0.03780977 0.0018447755
0000a0 d1 e0 f7 3c a8 c9 85 bc 6e cd 48 bb 05 50 37 3c
       0.030258568 -0.016331509 -0.0030640024 0.011188512
0000b0 f9 af b3 b9 e6 ae b1 bb 81 e8 c2 bc 15 98 03 bd
       -0.0003427265 -0.005422461 -0.023792507 -0.03212746
0000c0 c2 ff f9 3b 3b 21 7b bc 34 81 1e 3d fc 4a d5 3c
       0.0076293657 -0.015327747 0.038697436 0.026036732
0000d0 21 08 cd bb 9f da dc bc 4a 38 07 3c fa 34 1d bd
       -0.0062570726 -0.026959715 0.008253166 -0.0383806
0000e0 24 84 6f bc 5b af 44 bd c4 25 c7 bc d6 51 d4 bc
       -0.014618907 -0.048018795 -0.02431 -0.025917929
0000f0 f9 d8 db 3c 6f 5f 8d bb 2d f8 ac 3c 10 fe f0 bc
       0.026836859 -0.004314355 0.021114433 -0.029418021

weight f4 [64, 1024]
000000 89 ba 29 bc d6 35 d1 3c 36 a2 9b 3a a3 12 b5 bc
       -0.010359415 0.025538366 0.0011873904 -0.022103613
000010 41 67 93 bb 09 31 09 3d 34 a7 72 bc 36 85 59 bc
       -0.004498393 0.03349403 -0.014810372 -0.013276389
000020 c3 fb c1 3b 9c 15 67 3b 96 6a ec 3c de c4 7d bc
       0.005919905 0.0035260683 0.028859418 -0.015488831
000030 f2 c8 8e bb b7 da 9a 3c 18 fe be 3c 98 89 65 3c
       -0.0043574506 0.01890312 0.02331452 0.014009856
000040 18 1a d1 bc ee c3 d8 bc 6b 83 b9 3c ab f1 a8 bc
       -0.025525138 -0.026460614 0.022645673 -0.020623049
000050 05 0d f1 bc 9c 9e e3 bc e1 78 d4 3b 81 bc a8 bc
       -0.029425154 -0.027785592 0.0064841365 -0.020597698
000060 dd 59 86 3c a3 dc 01 bc 45 d3 5f 3b 90 b7 2f 3c
       0.016400272 -0.007926139 0.0034153026 0.010724917
000070 ee 6b c8 bc a0 e7 ce 3b 9c 28 30 3b 6c 2c 92 3b
       -0.024465527 0.006314233 0.0026879674 0.004460862
000080 f5 89 af 3b c5 70 ba bc c9 79 e8 3c ea 93 b0 3c
       0.005357022 -0.02275885 0.028378384 0.021554906
000090 61 db 9d bc 6f 1e 42 bb ba dd c6 bc 8a 25 b5 3b
       -0.019269647 -0.002962019 -0.02427565 0.0055281566
0000a0 3b 1f a7 bc 69 03 60 3c 62 13 4c b9 11 66 a6 3c
       -0.020400634 0.013672688 -0.00019462177 0.02031234
0000b0 9e bb 83 3c 43 cb d7 bc ab 5d 05 3d fe 86 8a bc
       0.016080674 -0.02634204 0.03256003 -0.016910072
0000c0 f8 86 ce 3c 70 bb 22 bc 39 52 7e 3c 7a d2 00 3d
       0.025210842 -0.009932384 0.015522533 0.031450726
0000d0 61 04 de ba ad 8a 1f 3d 44 9f 36 3c 16 0b df 3c
       -0.0016938561 0.03895061 0.01114637 0.027226966
0000e0 87 38 89 3c ee 06 52 3b d2 2c b7 3c 1e 30 95 bc
       0.016750587 0.0032047587 0.02236024 -0.01821142
0000f0 0a e3 f6 3b 07 5c 22 bb 48 57 bf 3c 90 3e ed bb
       0.0075343894 -0.002477409 0.023357049 -0.007240124
000100 3d 1b 25 3c b8 3e 66 bc 63 7e 91 3c 00 3b 39 bc
       0.010077295 -0.014053039 0.017760461 -0.011305571
000110 ba 1b 69 3b 77 2f ea 3c bc a8 5e 3c 78 87 9b bb
       0.0035569505 0.028587086 0.013590034 -0.0047463737
000120 a5 b9 79 bc 21 99 70 bc 78 f3 f1 3c a3 07 f9 bb
       -0.015242015 -0.014684946 0.02953504 -0.0075997873
000130 26 b3 50 3c 62 72 97 3c 03 b8 ef 3c 6d 5a 16 3c
       0.012738025 0.01848716 0.029262548 0.009176833
000140 07 01 19 bc e4 39 21 3c d9 b9 91 bb 1b 43 ee 3b
       -0.009338624 0.009840462 -0.0044472036 0.007271183
000150 17 0a 5c bc 55 b9 f9 3c d8 09 e3 3c 20 3a 00 3d
       -0.01343014 0.030483881 0.027714655 0.031305432
000160 d7 4a f5 bc a7 3e bd 3c f9 e5 f7 3b b8 54 0d 3c
       -0.029942913 0.023101164 0.0075652567 0.008626156
000170 d5 24 50 3c cd d4 e0 3c fe dd e8 3c 5d 2a ce bc
       0.012704094 0.027445221 0.028426167 -0.025166685
000180 b4 6a 87 3c 84 0a 97 3c 6c 94 9b bc 3d cd c3 3a
       0.016530372 0.018437631 -0.018991672 0.0014938485
000190 03 b9 fe 3b 6f 23 dc bb ec e6 08 3c cc ee 96 bc
       0.00777352 -0.006718091 0.008355837 -0.018424414
0001a0 d8 a5 bc bc 21 c2 41 bc 69 61 e3 bc b6 d0 04 bd
       -0.0230283 -0.011826069 -0.02775641 -0.032425605
0001b0 38 aa 86 bc 4b 65 cd 3c 0c 59 02 3b 28 f0 33 bb
       -0.016438589 0.025072714 0.0019889502 -0.0027456377
0001c0 0f 3b 7e bc 6b 21 b4 bb d4 3d 6c bb 02 5a c0 bb
       -0.01551701 -0.005497148 -0.0036047595 -0.005870105
0001d0 5b 4a 74 bc 80 a4 12 3d f0 e7 75 3a 60 42 0e 3c
       -0.014910306 0.03580141 0.00093805697 0.008682817
0001e0 b3 4e c2 bc dd a6 a4 bc b3 c6 27 bc 62 9a b8 3c
       -0.023719167 -0.020099098 -0.010240245 0.022534553
0001f0 ed 9c f9 3c 4b 63 18 bb 68 ee c1 bc 67 93 6d 3c
       0.030470336 -0.0023252543 -0.023673251 0.0145004755
000200 f9 6e 0f bc 5a 87 c7 3c e2 88 5b ba 9b e0 a9 3c
       -0.008754485 0.024356533 -0.0008374584 0.020736983
000210 3a bf 3b 3c 30 f1 72 3c ae c3 e5 3c 37 19 86 3c
       0.011459166 0.014828011 0.028047409 0.016369445
000220 97 1c 8c 3b a5 62 5a 3c 6a 27 f9 bc 8c ce c9 bc
       0.004275869 0.013329183 -0.030414302 -0.024634622
000230 88 05 91 3c 9b f4 b2 bc 37 9f 19 bc c7 07 e4 3c
       0.017702833 -0.021845153 -0.009376339 0.02783574
000240 fd 95 88 bc 63 fa 24 bc 17 90 e9 3c d8 2a 95 3c
       -0.016673082 -0.0100694625 0.02851109 0.018208906
000250 8d bc 90 3c bc c9 29 bc dd 9b f7 bb 84 18 9e bc
       0.017668033 -0.010363039 -0.007556422 -0.0192988
000260 b4 cd e3 3b 94 65 9a bc e2 fd 34 3b 24 8c f7 3c
       0.006952012 -0.018847264 0.0027617146 0.030218191
000270 3f 63 40 3c 55 60 a3 bc f5 6d 46 bc 17 91 c3 3b
       0.011742412 -0.019943396 -0.012111177 0.005968224
000280 28 33 dc bc bf 6e 8a 3c 45 9f 66 bc 3b f5 f4 bc
       -0.026879862 0.016898511 -0.014076059 -0.029902091
000290 dc 64 c2 3c 51 81 d8 3b a3 6a 85 3c cc 0d 79 3b
       0.023729734 0.0066072126 0.0162862 0.0038002608
0002a0 84 e9 8d 3c 78 bf ce 3a a6 c6 32 bc b3 a8 44 bc
       0.017323263 0.0015773615 -0.010911619 -0.012003112
0002b0 55 05 65 3a fb 81 73 bc 44 05 d9 3c 77 aa ed bc
       0.0008736451 -0.014862533 0.026491769 -0.029011948
0002c0 9c a6 e6 3c 35 f0 dd 3c a2 f2 00 3d 21 d0 09 3c
       0.028155617 0.027092079 0.031481393 0.008411438
0002d0 bb 4e a8 3c 11 f8 02 3d 3c e1 af 3c 40 16 b1 bc
       0.020545354 0.031974856 0.021469705 -0.021617055
0002e0 0d fd 63 3c ce 1b e8 3c b0 57 dc 3c 9e 4c 8e 3a
       0.0139153125 0.02833357 0.026897281 0.0010856574
0002f0 f4 a4 ea bc f8 ad 60 3c 5a e6 a9 bb fb 9a 8d bc
       -0.028643109 0.013713352 -0.0051849307 -0.017285815
000300 a9 04 9c 3c 84 6d e6 38 77 c6 c7 3c aa 4a c1 bc
       0.01904519 0.000109876535 0.024386628 -0.023595173
000310 cc bc b3 bc 72 62 e6 3c 08 a4 4f 3c 01 cb b8 bb
       -0.021940611 0.028123114 0.012673385 -0.0056394343
000320 6b 29 2c 3c db da 31 3b e5 9c 77 3c 04 53 30 bb
       0.010507922 0.0027138505 0.01511309 -0.002690495
000330 60 27 83 bc ec 3e 29 bc e1 b4 ce bb 1d ae 83 3b
       -0.016009986 -0.010329943 -0.0063081835 0.0040185587
000340 ed c3 da bc e0 80 5c 3c 4f 64 eb bb 2d a6 86 3c
       -0.026704753 0.013458461 -0.0071835886 0.01643666
000350 24 8e 9f 3c be e8 16 3d f8 7b 7c 3c cc 05 ad bc
       0.019476958 0.036843054 0.015410416 -0.021120928
000360 be c1 fc 3c d3 46 93 3c ac 9c 42 3b 45 ba 85 3c
       0.030854102 0.017978108 0.0029695434 0.016324172
000370 47 98 e4 3b 50 d5 c2 bc d6 50 42 bc 59 ab 0a 3c
       0.0069761607 -0.023783356 -0.011860093 0.008463704
000380 00 a3 40 3c 91 b6 8f bc 46 4f 03 3c 2f f0 b8 3b
       0.011757612 -0.01754311 0.008014506 0.0056438665
000390 85 f3 a3 bc ee b2 f6 3c 4d d7 0a 3d 4b eb f8 bb
       -0.02001358 0.030114617 0.033896733 -0.0075964085
0003a0 4d 72 a3 3c d8 d7 90 bc e2 f9 f6 3b 69 c7 5f 3a
       0.019951964 -0.017681047 0.0075371126 0.00085364893
0003b0 f8 c3 4d 3c 84 9d b9 3b 55 05 88 bc 5b cf d9 3c
       0.01255893 0.0056645293 -0.016604105 0.026588133
0003c0 6b 1d ec 3c d2 a0 35 3c e0 e5 da 3c f7 01 ba 3c
       0.028822621 0.011085706 0.026720941 0.022706015
0003d0 5b 58 af bc 37 13 6a 3b 77 77 32 bb 78 cb c0 3b
       -0.021404436 0.003571702 -0.002723185 0.0058836304
0003e0 1a cb 82 3c b9 0f bf 3c 94 29 f2 bb 07 ab f2 3c
       0.015965987 0.023322927 -0.0073902104 0.029622568
0003f0 b9 1b cc bc d0 1d e6 bc 14 29 71 bb 81 b4 da 3c
       -0.024915563 -0.028090388 -0.0036798166 0.0266974

bias f4 [64]
000000 c3 25 8e bc 87 8d 97 bc 65 4c de bc f0 13 bf bc
       -0.01735199 -0.018500103 -0.027136037 -0.023324937
000010 5e a6 09 bd ea f1 1c 3d bd 30 f1 3c e7 81 26 3c
       -0.033605926 0.038316645 0.029442186 0.010162807
000020 16 32 2c 3d 4e 34 08 bb d2 07 f6 bb c3 ce cb 3c
       0.042039953 -0.002078313 -0.0075082565 0.024878865
000030 81 76 86 3c ec a1 2d bc 01 75 b7 bc 7c 6f ba 3c
       0.016413929 -0.010597687 -0.022394659 0.022758238
000040 90 4e a2 b8 7a 6a a5 3b 67 5d d7 3c c9 c3 e9 3c
       -7.7393954e-05 0.0050480934 0.026289655 0.02853574
000050 27 61 3e 39 e7 e8 81 ba b6 df ea 3c 1e 92 f3 3b
       0.00018156004 -0.0009911329 0.028671127 0.00743319
000060 30 e3 b9 3c cc f5 0c 3d e5 0e 2e bd d3 02 57 bc
       0.02269134 0.034414098 -0.042494673 -0.013123232
000070 3a 82 3a 38 1e 0b 0c 3d 9b 8c 15 3c ed 67 79 bc
       4.446714e-05 0.03419029 0.009127761 -0.015222532
000080 e8 ec 9a bc 53 06 55 3c d9 1e 66 bb 1b bc 44 3c
       -0.018911794 0.013001996 -0.0035113601 0.012007738
000090 53 7a f7 3c 3c 48 40 ba 02 2e ba ba 6d 79 a5 bb
       0.030209696 -0.00073349825 -0.0014204385 -0.0050498755
0000a0 66 b3 1a 3c 00 13 11 bc fe d7 ea bb 3e 58 9b bc
       0.009442186 -0.008854628 -0.0071668616 -0.018962976
0000b0 29 62 3d 3c 8b 4a f1 3c b0 e4 56 bc 9d 3c b9 bc
       0.011559048 0.02945449 -0.013116047 -0.02261191
0000c0 84 05 a6 3c cb 3c a2 bb 35 97 21 3d 6a 3e af 3b
       0.020266302 -0.0049510947 0.039450843 0.0053480165
0000d0 3c 7e 7a 3b b4 94 c2 3b 79 76 d8 3c ca 9c 4c 3c
       0.0038222214 0.005938137 0.02642368 0.012488553
0000e0 de 42 fd bc 62 d4 ab 3c 10 c6 a6 3c 5d 5b 86 bc
       -0.030915674 0.020975295 0.020358115 -0.016400987
0000f0 90 d8 c9 bc 59 28 e1 3c a1 ce 09 bd dc f4 6a bc
       -0.024639398 0.02748506 -0.033644322 -0.014340606

weight f4 [10, 64]
000000 56 e7 11 bd 0b 10 05 3e 2e bb 32 3d 1d b8 90 bd
       -0.03562101 0.12994401 0.04363554 -0.07066367
000010 5f 4b fe 3d 83 68 ff bd b1 c0 12 be 63 de c0 bd
       0.1241672 -0.12471106 -0.14331318 -0.09417417
000020 79 33 76 bc a5 5e 7f bb 39 61 ea bd 3d a6 ff bd
       -0.0150269205 -0.0038966325 -0.11444325 -0.12482879
000030 08 d6 6e bd c2 36 be 3d 00 ac 63 3d 52 f8 65 bc
       -0.058309585 0.09287788 0.055583954 -0.014036255
000040 95 8e b9 3d 54 f0 83 3d 73 78 14 bd 95 5a 99 3d
       0.090603985 0.06442323 -0.03624768 0.0748798
000050 c3 d7 5f 3d f1 78 76 bd 36 5b 06 be d8 b7 d6 3c
       0.054649126 -0.060173932 -0.13120732 0.02621071
000060 b0 6b 5c bd fc 5a dc 3d 3f 92 14 3e 2d 7e 17 3d
       -0.053813636 0.107595414 0.14508913 0.036985565
000070 f4 f5 70 bd 1d b8 ea bd 4b 93 14 3d d8 eb 8e 3d
       -0.05882831 -0.11460898 0.036273282 0.069785774
000080 08 2f 93 3d e6 f2 6a bc a4 5b d5 3d 9b eb af 3d
       0.07186705 -0.014340138 0.1041787 0.0858986
000090 15 59 db bd 30 35 a6 bd 22 3d cf 3b e1 19 fb bc
       -0.107103504 -0.081156135 0.0063244263 -0.030651988
0000a0 31 32 9d 3d f6 ca 16 bd 6a d1 2a bd ef a5 0a 3d
       0.07675589 -0.036814652 -0.04170362 0.033849653
0000b0 7a e7 84 bd 90 14 8b bc 8d df c5 bd 8e c5 6b bd
       -0.06489463 -0.016977578 -0.096617796 -0.05756145
0000c0 e7 54 b4 bd bb e7 b7 3b a3 03 8c bb 5e b9 20 3c
       -0.08805256 0.005612341 -0.0042728945 0.00980982
0000d0 8b 14 f0 bd e2 7c 05 3e 7b 49 e3 bd 2b f0 79 bd
       -0.11722668 0.1303592 -0.11098 -0.061020058
0000e0 c3 13 7b 3c e2 60 65 bd 26 57 98 bd 5b 8c 0e be
       0.015324536 -0.056000598 -0.07438497 -0.13920729
0000f0 25 15 a8 bd bf 60 a6 bd 34 1e df 3d cf 15 04 be
       -0.08207158 -0.081239216 0.10894433 -0.12898944
000100 b0 67 b3 3d b1 09 97 bd 93 3c 8c ba 4c c4 81 bb
       0.08760011 -0.07374895 -0.0010699205 -0.003960168
000110 ce 69 f9 3d aa 79 d2 bd 6b 8d 77 3c 3f 63 26 3e
       0.12178384 -0.10277112 0.0151094 0.16248797
000120 e9 7c c2 3d 15 18 17 3e 20 9f ca 3c 2e 36 0b bd
       0.09496481 0.1475528 0.02473408 -0.033987217
000130 b1 ed 13 be 50 25 f1 bd fd e5 8c bc 9e e4 54 3d
       -0.14446141 -0.11774695 -0.01719951 0.05197584
000140 b1 71 9e bd 69 90 9f 3d 20 a3 9b 3d 89 cb c4 3d
       -0.07736529 0.07791216 0.07599473 0.09609134
000150 6d b9 02 bd 96 c5 b7 3d b3 80 72 3d ee f7 a5 bd
       -0.031915117 0.089732334 0.05920477 -0.081039295
000160 15 46 2d 3e 6a a8 ca bd 4a 3f f8 bd f9 43 74 bd
       0.16921265 -0.09895404 -0.121214464 -0.059635136
000170 57 f1 cb 3d 2d 5f 47 3d 11 50 8a bd 8e 2d b9 bb
       0.09958141 0.04867475 -0.06753553 -0.0056511825
000180 24 63 dc bd 77 90 0d 3e 38 0f db bd fc 7d b8 bd
       -0.10761097 0.1382464 -0.10696262 -0.090084046
000190 ee a1 94 3d 4f 4e df bd d0 f7 d9 3d e3 28 65 3d
       0.07257448 -0.10903608 0.106429696 0.055947196
0001a0 b4 3e 71 3d d2 ed 97 3c 6c 35 63 bd 69 bf e9 bd
       0.05889769 0.018546019 -0.05547087 -0.11413462
0001b0 a6 91 d8 bd 35 a0 0b be e7 de f4 bd 94 1e d4 bd
       -0.10574655 -0.13635333 -0.11956578 -0.10357395
0001c0 68 3f 04 be 36 26 78 bb 5b b4 2b bd cc b4 1b 3e
       -0.12914813 -0.0037864572 -0.041920047 0.15205687
0001d0 a1 f7 85 3c 78 09 da bd 58 34 03 be c9 e5 93 3d
       0.01635343 -0.10646337 -0.12812936 0.072215624
0001e0 8b df 88 3d 86 95 c4 bd be f9 d5 3d 09 7c 39 bc
       0.066832624 -0.09598832 0.10448025 -0.011321076
0001f0 a0 87 29 bd 66 12 99 bc d8 83 c0 bd e8 fa a5 3d
       -0.041389108 -0.01868553 -0.09400147 0.08104497
000200 6a 53 1e 3d 31 37 d4 3d e9 1a b5 bd b0 38 30 3d
       0.03865377 0.103620894 -0.08843023 0.04302281
000210 9b a6 b3 3d d0 96 09 3d dd b2 fb bd 04 98 ba 3d
       0.08772012 0.03359109 -0.12289975 0.09111026
000220 a5 67 62 3d 62 db bc bd 60 4a c2 3d f1 96 2d 3d
       0.055274624 -0.092215315 0.09486842 0.042380277
000230 53 19 5c 3d d0 fc bf 3d de 6c df 3d 1c a8 96 3b
       0.05373509 0.09374392 0.10909437 0.004597677
000240 d4 9d fb bd c4 06 f8 3c d9 74 12 3e 03 4c 05 3e
       -0.12285963 0.030276664 0.14302386 0.13017277
000250 16 eb 33 3d 73 d9 64 3d 6e 62 3b 3d e9 a5 f7 3d
       0.043925367 0.05587144 0.045748167 0.12092192
000260 64 a3 be bd f9 d5 b8 bd f7 a5 74 3d 60 f4 02 3d
       -0.09308508 -0.09025187 0.05972859 0.031971335
000270 6e 24 95 bd 2c f3 11 3d 55 20 02 be 7c d8 11 3d
       -0.07282339 0.035632297 -0.12707646 0.035606846
000280 65 78 11 bd df 13 0f bd 7f 4f 9b bd 03 2b 09 3e
       -0.035515208 -0.03493106 -0.07583522 0.13395314
000290 96 ff 82 bc 5f c5 d8 3c a0 4f 0e bd 22 d1 c0 bd
       -0.015991013 0.026461301 -0.034743905 -0.09414889
0002a0 c9 df 4a bd e0 d7 f4 3d 3f 4a 0d 3c c5 07 b3 3d
       -0.049529824 0.119552374 0.008623659 0.08741716
0002b0 f7 bb d7 3d 4c 34 e5 3d 8c 40 33 3d 16 68 88 3d
       0.10533898 0.111916155 0.04376273 0.06660478
0002c0 31 8b 38 3d e3 48 b3 bd 45 32 b0 3d 8a 1b f9 bd
       0.04505462 -0.087541364 0.08603338 -0.12163456
0002d0 6b 42 ca 3d 46 bc 61 bd 38 49 8d 3d ae a4 1e bd
       0.098759495 -0.055111192 0.06898731 -0.03873127
0002e0 51 c5 f6 bd cf a0 66 3d cb 54 e0 3d eb 52 be 3d
       -0.12049354 0.056305703 0.10953673 0.09293159
0002f0 7d 9b e3 bd a7 25 fd bc 9e d2 34 3d c5 c4 6b 3c
       -0.111136414 -0.030901743 0.044146173 0.014390175
000300 0e e5 02 3d 59 e5 7a bc 9f 26 c6 3d 3f 5b 58 3c
       0.031956725 -0.01531347 0.09675335 0.0132053485
000310 c5 a4 4b 3d 6f 61 d2 3d db 9c 95 3d 10 0c 21 bd
       0.049717683 0.1027249 0.073053084 -0.039318144
000320 a7 3f a9 3d dc 33 06 3d c9 39 c2 bd 8a 50 6a 3d
       0.08264094 0.0327643 -0.09483678 0.057205714
000330 46 d5 64 3d 5a a7 5b bd 42 fd 10 be 81 22 dd 3d
       0.055867456 -0.053626396 -0.1415911 0.10797597
000340 ef c9 6c bc 05 1e f5 bd 31 b3 bd 3d 29 80 ac bd
       -0.014452442 -0.119686164 0.09262694 -0.08422882
000350 73 b7 08 3b b4 1c 70 3c 9f 97 c3 bd 90 9c e8 bd
       0.0020861297 0.014655281 -0.09550404 -0.11357987
000360 03 f5 80 bd 32 e6 fb 3c cc 4d 4f bd ab d3 f0 bd
       -0.06296732 0.030749414 -0.050611302 -0.117591225
000370 53 4c 6d 3d 5c f7 e4 3d 92 64 93 3c a5 61 53 bd
       0.057934117 0.111799926 0.017992292 -0.051606793
000380 05 d4 ba bc 90 ba a5 bd 93 03 e1 3d 31 9e 5d 3d
       -0.022806177 -0.080922246 0.1098701 0.05410594
000390 28 57 82 3d 19 d3 dd bc b8 d1 ca bd 98 a0 89 3c
       0.0636428 -0.027078198 -0.09903282 0.01680021
0003a0 10 08 85 3d da 7d f4 3d 9b ca 12 3d d3 9c e2 bd
       0.064956784 0.11938067 0.03583775 -0.11065068
0003b0 f8 b2 a6 3d 3f a5 15 bc 79 01 cf 3b 68 09 19 bd
       0.08139604 -0.009133636 0.006317314 -0.037362486
0003c0 72 ba 05 3e 3a 09 f8 bd e3 db d1 3c 0c 28 a7 3d
       0.13059404 -0.12111135 0.025617545 0.08161935
0003d0 20 67 54 3d 89 12 b9 bd ad 32 88 3d 07 bb 06 3e
       0.05185616 -0.090367384 0.06650291 0.13157283
0003e0 52 f0 b2 bd b7 6b 8f 3d 70 3c 20 3d 2b bb ae 3c
       -0.08737244 0.07002967 0.039120138 0.021329483
0003f0 e1 3b 6c bd 3c 0d b8 bd d9 ee 8e bd 80 69 a6 3d
       -0.057674292 -0.08986899 -0.0697915 0.08125591

bias f4 [10]
000000 a2 00 24 be 0a f2 8e 3d 89 f9 74 3d 68 84 34 bd
       -0.16015866 0.06979759 0.059808288 -0.044071585
000010 2a 75 a8 bc 07 5a 03 be 50 b7 13 3e 46 f0 49 bd
       -0.02056368 -0.12827311 0.14425397 -0.04930141
000020 55 dc b4 bd 69 84 c1 bd
       -0.088310875 -0.09449083
